{
  "nodes": [
    {
      "op": "null", 
      "name": "data", 
      "inputs": []
    }, 
    {
      "op": "tvm_op", 
      "name": "pad0", 
      "attrs": {
        "flatten_data": "0", 
        "func_name": "fuse_pad", 
        "num_inputs": "1", 
        "num_outputs": "1"
      }, 
      "inputs": [[0, 0, 0]]
    }, 
    {
      "op": "null", 
      "name": "_param_1", 
      "inputs": []
    }, 
    {
      "op": "null", 
      "name": "_param_2", 
      "inputs": []
    }, 
    {
      "op": "tvm_op", 
      "name": "conv2d0", 
      "attrs": {
        "flatten_data": "0", 
        "func_name": "fuse_conv2d", 
        "num_inputs": "3", 
        "num_outputs": "1"
      }, 
      "inputs": [[1, 0, 0], [2, 0, 0], [3, 0, 0]]
    }, 
    {
      "op": "null", 
      "name": "_param_6", 
      "inputs": []
    }, 
    {
      "op": "tvm_op", 
      "name": "batch_norm0_add_eps", 
      "attrs": {
        "flatten_data": "1", 
        "func_name": "fuse___add_scalar__", 
        "num_inputs": "1", 
        "num_outputs": "1"
      }, 
      "inputs": [[5, 0, 0]]
    }, 
    {
      "op": "tvm_op", 
      "name": "batch_norm0_sqrt", 
      "attrs": {
        "flatten_data": "1", 
        "func_name": "fuse_sqrt", 
        "num_inputs": "1", 
        "num_outputs": "1"
      }, 
      "inputs": [[6, 0, 0]]
    }, 
    {
      "op": "tvm_op", 
      "name": "batch_norm0_div", 
      "attrs": {
        "flatten_data": "1", 
        "func_name": "fuse___rdiv_scalar__", 
        "num_inputs": "1", 
        "num_outputs": "1"
      }, 
      "inputs": [[7, 0, 0]]
    }, 
    {
      "op": "null", 
      "name": "_param_3", 
      "inputs": []
    }, 
    {
      "op": "tvm_op", 
      "name": "batch_norm0_gamma_mul_div", 
      "attrs": {
        "flatten_data": "1", 
        "func_name": "fuse_elemwise_mul", 
        "num_inputs": "2", 
        "num_outputs": "1"
      }, 
      "inputs": [[8, 0, 0], [9, 0, 0]]
    }, 
    {
      "op": "tvm_op", 
      "name": "batch_norm0_gamma_mul_div_expand", 
      "attrs": {
        "flatten_data": "0", 
        "func_name": "fuse_expand_dims", 
        "num_inputs": "1", 
        "num_outputs": "1"
      }, 
      "inputs": [[10, 0, 0]]
    }, 
    {
      "op": "tvm_op", 
      "name": "batch_norm0_a_mul_data", 
      "attrs": {
        "flatten_data": "0", 
        "func_name": "fuse_broadcast_mul", 
        "num_inputs": "2", 
        "num_outputs": "1"
      }, 
      "inputs": [[4, 0, 0], [11, 0, 0]]
    }, 
    {
      "op": "null", 
      "name": "_param_5", 
      "inputs": []
    }, 
    {
      "op": "tvm_op", 
      "name": "batch_norm0_neg_mean", 
      "attrs": {
        "flatten_data": "1", 
        "func_name": "fuse_negative", 
        "num_inputs": "1", 
        "num_outputs": "1"
      }, 
      "inputs": [[13, 0, 0]]
    }, 
    {
      "op": "tvm_op", 
      "name": "batch_norm0_neg_mean_mul_a", 
      "attrs": {
        "flatten_data": "1", 
        "func_name": "fuse_elemwise_mul", 
        "num_inputs": "2", 
        "num_outputs": "1"
      }, 
      "inputs": [[14, 0, 0], [10, 0, 0]]
    }, 
    {
      "op": "null", 
      "name": "_param_4", 
      "inputs": []
    }, 
    {
      "op": "tvm_op", 
      "name": "batch_norm0_add_beta", 
      "attrs": {
        "flatten_data": "1", 
        "func_name": "fuse_elemwise_add", 
        "num_inputs": "2", 
        "num_outputs": "1"
      }, 
      "inputs": [[15, 0, 0], [16, 0, 0]]
    }, 
    {
      "op": "tvm_op", 
      "name": "batch_norm0_add_beta_expand", 
      "attrs": {
        "flatten_data": "0", 
        "func_name": "fuse_expand_dims", 
        "num_inputs": "1", 
        "num_outputs": "1"
      }, 
      "inputs": [[17, 0, 0]]
    }, 
    {
      "op": "tvm_op", 
      "name": "batch_norm0_out", 
      "attrs": {
        "flatten_data": "0", 
        "func_name": "fuse_broadcast_add", 
        "num_inputs": "2", 
        "num_outputs": "1"
      }, 
      "inputs": [[12, 0, 0], [18, 0, 0]]
    }, 
    {
      "op": "tvm_op", 
      "name": "relu0", 
      "attrs": {
        "flatten_data": "1", 
        "func_name": "fuse_relu", 
        "num_inputs": "1", 
        "num_outputs": "1"
      }, 
      "inputs": [[19, 0, 0]]
    }, 
    {
      "op": "tvm_op", 
      "name": "max_pool2d0", 
      "attrs": {
        "flatten_data": "0", 
        "func_name": "fuse_max_pool2d", 
        "num_inputs": "1", 
        "num_outputs": "1"
      }, 
      "inputs": [[20, 0, 0]]
    }, 
    {
      "op": "null", 
      "name": "_param_7", 
      "inputs": []
    }, 
    {
      "op": "null", 
      "name": "_param_8", 
      "inputs": []
    }, 
    {
      "op": "tvm_op", 
      "name": "conv2d1", 
      "attrs": {
        "flatten_data": "0", 
        "func_name": "fuse_conv2d_1", 
        "num_inputs": "3", 
        "num_outputs": "1"
      }, 
      "inputs": [[21, 0, 0], [22, 0, 0], [23, 0, 0]]
    }, 
    {
      "op": "null", 
      "name": "_param_12", 
      "inputs": []
    }, 
    {
      "op": "tvm_op", 
      "name": "batch_norm1_add_eps", 
      "attrs": {
        "flatten_data": "1", 
        "func_name": "fuse___add_scalar__", 
        "num_inputs": "1", 
        "num_outputs": "1"
      }, 
      "inputs": [[25, 0, 0]]
    }, 
    {
      "op": "tvm_op", 
      "name": "batch_norm1_sqrt", 
      "attrs": {
        "flatten_data": "1", 
        "func_name": "fuse_sqrt", 
        "num_inputs": "1", 
        "num_outputs": "1"
      }, 
      "inputs": [[26, 0, 0]]
    }, 
    {
      "op": "tvm_op", 
      "name": "batch_norm1_div", 
      "attrs": {
        "flatten_data": "1", 
        "func_name": "fuse___rdiv_scalar__", 
        "num_inputs": "1", 
        "num_outputs": "1"
      }, 
      "inputs": [[27, 0, 0]]
    }, 
    {
      "op": "null", 
      "name": "_param_9", 
      "inputs": []
    }, 
    {
      "op": "tvm_op", 
      "name": "batch_norm1_gamma_mul_div", 
      "attrs": {
        "flatten_data": "1", 
        "func_name": "fuse_elemwise_mul", 
        "num_inputs": "2", 
        "num_outputs": "1"
      }, 
      "inputs": [[28, 0, 0], [29, 0, 0]]
    }, 
    {
      "op": "tvm_op", 
      "name": "batch_norm1_gamma_mul_div_expand", 
      "attrs": {
        "flatten_data": "0", 
        "func_name": "fuse_expand_dims", 
        "num_inputs": "1", 
        "num_outputs": "1"
      }, 
      "inputs": [[30, 0, 0]]
    }, 
    {
      "op": "tvm_op", 
      "name": "batch_norm1_a_mul_data", 
      "attrs": {
        "flatten_data": "0", 
        "func_name": "fuse_broadcast_mul_1", 
        "num_inputs": "2", 
        "num_outputs": "1"
      }, 
      "inputs": [[24, 0, 0], [31, 0, 0]]
    }, 
    {
      "op": "null", 
      "name": "_param_11", 
      "inputs": []
    }, 
    {
      "op": "tvm_op", 
      "name": "batch_norm1_neg_mean", 
      "attrs": {
        "flatten_data": "1", 
        "func_name": "fuse_negative", 
        "num_inputs": "1", 
        "num_outputs": "1"
      }, 
      "inputs": [[33, 0, 0]]
    }, 
    {
      "op": "tvm_op", 
      "name": "batch_norm1_neg_mean_mul_a", 
      "attrs": {
        "flatten_data": "1", 
        "func_name": "fuse_elemwise_mul", 
        "num_inputs": "2", 
        "num_outputs": "1"
      }, 
      "inputs": [[34, 0, 0], [30, 0, 0]]
    }, 
    {
      "op": "null", 
      "name": "_param_10", 
      "inputs": []
    }, 
    {
      "op": "tvm_op", 
      "name": "batch_norm1_add_beta", 
      "attrs": {
        "flatten_data": "1", 
        "func_name": "fuse_elemwise_add", 
        "num_inputs": "2", 
        "num_outputs": "1"
      }, 
      "inputs": [[35, 0, 0], [36, 0, 0]]
    }, 
    {
      "op": "tvm_op", 
      "name": "batch_norm1_add_beta_expand", 
      "attrs": {
        "flatten_data": "0", 
        "func_name": "fuse_expand_dims", 
        "num_inputs": "1", 
        "num_outputs": "1"
      }, 
      "inputs": [[37, 0, 0]]
    }, 
    {
      "op": "tvm_op", 
      "name": "batch_norm1_out", 
      "attrs": {
        "flatten_data": "0", 
        "func_name": "fuse_broadcast_add_1", 
        "num_inputs": "2", 
        "num_outputs": "1"
      }, 
      "inputs": [[32, 0, 0], [38, 0, 0]]
    }, 
    {
      "op": "tvm_op", 
      "name": "relu1", 
      "attrs": {
        "flatten_data": "1", 
        "func_name": "fuse_relu_1", 
        "num_inputs": "1", 
        "num_outputs": "1"
      }, 
      "inputs": [[39, 0, 0]]
    }, 
    {
      "op": "tvm_op", 
      "name": "pad1", 
      "attrs": {
        "flatten_data": "0", 
        "func_name": "fuse_pad_1", 
        "num_inputs": "1", 
        "num_outputs": "1"
      }, 
      "inputs": [[40, 0, 0]]
    }, 
    {
      "op": "null", 
      "name": "_param_13", 
      "inputs": []
    }, 
    {
      "op": "null", 
      "name": "_param_14", 
      "inputs": []
    }, 
    {
      "op": "tvm_op", 
      "name": "conv2d2", 
      "attrs": {
        "flatten_data": "0", 
        "func_name": "fuse_conv2d_2", 
        "num_inputs": "3", 
        "num_outputs": "1"
      }, 
      "inputs": [[41, 0, 0], [42, 0, 0], [43, 0, 0]]
    }, 
    {
      "op": "null", 
      "name": "_param_18", 
      "inputs": []
    }, 
    {
      "op": "tvm_op", 
      "name": "batch_norm2_add_eps", 
      "attrs": {
        "flatten_data": "1", 
        "func_name": "fuse___add_scalar__", 
        "num_inputs": "1", 
        "num_outputs": "1"
      }, 
      "inputs": [[45, 0, 0]]
    }, 
    {
      "op": "tvm_op", 
      "name": "batch_norm2_sqrt", 
      "attrs": {
        "flatten_data": "1", 
        "func_name": "fuse_sqrt", 
        "num_inputs": "1", 
        "num_outputs": "1"
      }, 
      "inputs": [[46, 0, 0]]
    }, 
    {
      "op": "tvm_op", 
      "name": "batch_norm2_div", 
      "attrs": {
        "flatten_data": "1", 
        "func_name": "fuse___rdiv_scalar__", 
        "num_inputs": "1", 
        "num_outputs": "1"
      }, 
      "inputs": [[47, 0, 0]]
    }, 
    {
      "op": "null", 
      "name": "_param_15", 
      "inputs": []
    }, 
    {
      "op": "tvm_op", 
      "name": "batch_norm2_gamma_mul_div", 
      "attrs": {
        "flatten_data": "1", 
        "func_name": "fuse_elemwise_mul", 
        "num_inputs": "2", 
        "num_outputs": "1"
      }, 
      "inputs": [[48, 0, 0], [49, 0, 0]]
    }, 
    {
      "op": "tvm_op", 
      "name": "batch_norm2_gamma_mul_div_expand", 
      "attrs": {
        "flatten_data": "0", 
        "func_name": "fuse_expand_dims", 
        "num_inputs": "1", 
        "num_outputs": "1"
      }, 
      "inputs": [[50, 0, 0]]
    }, 
    {
      "op": "tvm_op", 
      "name": "batch_norm2_a_mul_data", 
      "attrs": {
        "flatten_data": "0", 
        "func_name": "fuse_broadcast_mul_1", 
        "num_inputs": "2", 
        "num_outputs": "1"
      }, 
      "inputs": [[44, 0, 0], [51, 0, 0]]
    }, 
    {
      "op": "null", 
      "name": "_param_17", 
      "inputs": []
    }, 
    {
      "op": "tvm_op", 
      "name": "batch_norm2_neg_mean", 
      "attrs": {
        "flatten_data": "1", 
        "func_name": "fuse_negative", 
        "num_inputs": "1", 
        "num_outputs": "1"
      }, 
      "inputs": [[53, 0, 0]]
    }, 
    {
      "op": "tvm_op", 
      "name": "batch_norm2_neg_mean_mul_a", 
      "attrs": {
        "flatten_data": "1", 
        "func_name": "fuse_elemwise_mul", 
        "num_inputs": "2", 
        "num_outputs": "1"
      }, 
      "inputs": [[54, 0, 0], [50, 0, 0]]
    }, 
    {
      "op": "null", 
      "name": "_param_16", 
      "inputs": []
    }, 
    {
      "op": "tvm_op", 
      "name": "batch_norm2_add_beta", 
      "attrs": {
        "flatten_data": "1", 
        "func_name": "fuse_elemwise_add", 
        "num_inputs": "2", 
        "num_outputs": "1"
      }, 
      "inputs": [[55, 0, 0], [56, 0, 0]]
    }, 
    {
      "op": "tvm_op", 
      "name": "batch_norm2_add_beta_expand", 
      "attrs": {
        "flatten_data": "0", 
        "func_name": "fuse_expand_dims", 
        "num_inputs": "1", 
        "num_outputs": "1"
      }, 
      "inputs": [[57, 0, 0]]
    }, 
    {
      "op": "tvm_op", 
      "name": "batch_norm2_out", 
      "attrs": {
        "flatten_data": "0", 
        "func_name": "fuse_broadcast_add_1", 
        "num_inputs": "2", 
        "num_outputs": "1"
      }, 
      "inputs": [[52, 0, 0], [58, 0, 0]]
    }, 
    {
      "op": "tvm_op", 
      "name": "relu2", 
      "attrs": {
        "flatten_data": "1", 
        "func_name": "fuse_relu_1", 
        "num_inputs": "1", 
        "num_outputs": "1"
      }, 
      "inputs": [[59, 0, 0]]
    }, 
    {
      "op": "null", 
      "name": "_param_19", 
      "inputs": []
    }, 
    {
      "op": "null", 
      "name": "_param_20", 
      "inputs": []
    }, 
    {
      "op": "tvm_op", 
      "name": "conv2d3", 
      "attrs": {
        "flatten_data": "0", 
        "func_name": "fuse_conv2d_3", 
        "num_inputs": "3", 
        "num_outputs": "1"
      }, 
      "inputs": [[60, 0, 0], [61, 0, 0], [62, 0, 0]]
    }, 
    {
      "op": "null", 
      "name": "_param_26", 
      "inputs": []
    }, 
    {
      "op": "tvm_op", 
      "name": "batch_norm3_add_eps", 
      "attrs": {
        "flatten_data": "1", 
        "func_name": "fuse___add_scalar___1", 
        "num_inputs": "1", 
        "num_outputs": "1"
      }, 
      "inputs": [[64, 0, 0]]
    }, 
    {
      "op": "tvm_op", 
      "name": "batch_norm3_sqrt", 
      "attrs": {
        "flatten_data": "1", 
        "func_name": "fuse_sqrt_1", 
        "num_inputs": "1", 
        "num_outputs": "1"
      }, 
      "inputs": [[65, 0, 0]]
    }, 
    {
      "op": "tvm_op", 
      "name": "batch_norm3_div", 
      "attrs": {
        "flatten_data": "1", 
        "func_name": "fuse___rdiv_scalar___1", 
        "num_inputs": "1", 
        "num_outputs": "1"
      }, 
      "inputs": [[66, 0, 0]]
    }, 
    {
      "op": "null", 
      "name": "_param_23", 
      "inputs": []
    }, 
    {
      "op": "tvm_op", 
      "name": "batch_norm3_gamma_mul_div", 
      "attrs": {
        "flatten_data": "1", 
        "func_name": "fuse_elemwise_mul_1", 
        "num_inputs": "2", 
        "num_outputs": "1"
      }, 
      "inputs": [[67, 0, 0], [68, 0, 0]]
    }, 
    {
      "op": "tvm_op", 
      "name": "batch_norm3_gamma_mul_div_expand", 
      "attrs": {
        "flatten_data": "0", 
        "func_name": "fuse_expand_dims_1", 
        "num_inputs": "1", 
        "num_outputs": "1"
      }, 
      "inputs": [[69, 0, 0]]
    }, 
    {
      "op": "tvm_op", 
      "name": "batch_norm3_a_mul_data", 
      "attrs": {
        "flatten_data": "0", 
        "func_name": "fuse_broadcast_mul_2", 
        "num_inputs": "2", 
        "num_outputs": "1"
      }, 
      "inputs": [[63, 0, 0], [70, 0, 0]]
    }, 
    {
      "op": "null", 
      "name": "_param_25", 
      "inputs": []
    }, 
    {
      "op": "tvm_op", 
      "name": "batch_norm3_neg_mean", 
      "attrs": {
        "flatten_data": "1", 
        "func_name": "fuse_negative_1", 
        "num_inputs": "1", 
        "num_outputs": "1"
      }, 
      "inputs": [[72, 0, 0]]
    }, 
    {
      "op": "tvm_op", 
      "name": "batch_norm3_neg_mean_mul_a", 
      "attrs": {
        "flatten_data": "1", 
        "func_name": "fuse_elemwise_mul_1", 
        "num_inputs": "2", 
        "num_outputs": "1"
      }, 
      "inputs": [[73, 0, 0], [69, 0, 0]]
    }, 
    {
      "op": "null", 
      "name": "_param_24", 
      "inputs": []
    }, 
    {
      "op": "tvm_op", 
      "name": "batch_norm3_add_beta", 
      "attrs": {
        "flatten_data": "1", 
        "func_name": "fuse_elemwise_add_1", 
        "num_inputs": "2", 
        "num_outputs": "1"
      }, 
      "inputs": [[74, 0, 0], [75, 0, 0]]
    }, 
    {
      "op": "tvm_op", 
      "name": "batch_norm3_add_beta_expand", 
      "attrs": {
        "flatten_data": "0", 
        "func_name": "fuse_expand_dims_1", 
        "num_inputs": "1", 
        "num_outputs": "1"
      }, 
      "inputs": [[76, 0, 0]]
    }, 
    {
      "op": "tvm_op", 
      "name": "batch_norm3_out", 
      "attrs": {
        "flatten_data": "0", 
        "func_name": "fuse_broadcast_add_2", 
        "num_inputs": "2", 
        "num_outputs": "1"
      }, 
      "inputs": [[71, 0, 0], [77, 0, 0]]
    }, 
    {
      "op": "null", 
      "name": "_param_21", 
      "inputs": []
    }, 
    {
      "op": "null", 
      "name": "_param_22", 
      "inputs": []
    }, 
    {
      "op": "tvm_op", 
      "name": "conv2d4", 
      "attrs": {
        "flatten_data": "0", 
        "func_name": "fuse_conv2d_3", 
        "num_inputs": "3", 
        "num_outputs": "1"
      }, 
      "inputs": [[21, 0, 0], [79, 0, 0], [80, 0, 0]]
    }, 
    {
      "op": "null", 
      "name": "_param_30", 
      "inputs": []
    }, 
    {
      "op": "tvm_op", 
      "name": "batch_norm4_add_eps", 
      "attrs": {
        "flatten_data": "1", 
        "func_name": "fuse___add_scalar___1", 
        "num_inputs": "1", 
        "num_outputs": "1"
      }, 
      "inputs": [[82, 0, 0]]
    }, 
    {
      "op": "tvm_op", 
      "name": "batch_norm4_sqrt", 
      "attrs": {
        "flatten_data": "1", 
        "func_name": "fuse_sqrt_1", 
        "num_inputs": "1", 
        "num_outputs": "1"
      }, 
      "inputs": [[83, 0, 0]]
    }, 
    {
      "op": "tvm_op", 
      "name": "batch_norm4_div", 
      "attrs": {
        "flatten_data": "1", 
        "func_name": "fuse___rdiv_scalar___1", 
        "num_inputs": "1", 
        "num_outputs": "1"
      }, 
      "inputs": [[84, 0, 0]]
    }, 
    {
      "op": "null", 
      "name": "_param_27", 
      "inputs": []
    }, 
    {
      "op": "tvm_op", 
      "name": "batch_norm4_gamma_mul_div", 
      "attrs": {
        "flatten_data": "1", 
        "func_name": "fuse_elemwise_mul_1", 
        "num_inputs": "2", 
        "num_outputs": "1"
      }, 
      "inputs": [[85, 0, 0], [86, 0, 0]]
    }, 
    {
      "op": "tvm_op", 
      "name": "batch_norm4_gamma_mul_div_expand", 
      "attrs": {
        "flatten_data": "0", 
        "func_name": "fuse_expand_dims_1", 
        "num_inputs": "1", 
        "num_outputs": "1"
      }, 
      "inputs": [[87, 0, 0]]
    }, 
    {
      "op": "tvm_op", 
      "name": "batch_norm4_a_mul_data", 
      "attrs": {
        "flatten_data": "0", 
        "func_name": "fuse_broadcast_mul_2", 
        "num_inputs": "2", 
        "num_outputs": "1"
      }, 
      "inputs": [[81, 0, 0], [88, 0, 0]]
    }, 
    {
      "op": "null", 
      "name": "_param_29", 
      "inputs": []
    }, 
    {
      "op": "tvm_op", 
      "name": "batch_norm4_neg_mean", 
      "attrs": {
        "flatten_data": "1", 
        "func_name": "fuse_negative_1", 
        "num_inputs": "1", 
        "num_outputs": "1"
      }, 
      "inputs": [[90, 0, 0]]
    }, 
    {
      "op": "tvm_op", 
      "name": "batch_norm4_neg_mean_mul_a", 
      "attrs": {
        "flatten_data": "1", 
        "func_name": "fuse_elemwise_mul_1", 
        "num_inputs": "2", 
        "num_outputs": "1"
      }, 
      "inputs": [[91, 0, 0], [87, 0, 0]]
    }, 
    {
      "op": "null", 
      "name": "_param_28", 
      "inputs": []
    }, 
    {
      "op": "tvm_op", 
      "name": "batch_norm4_add_beta", 
      "attrs": {
        "flatten_data": "1", 
        "func_name": "fuse_elemwise_add_1", 
        "num_inputs": "2", 
        "num_outputs": "1"
      }, 
      "inputs": [[92, 0, 0], [93, 0, 0]]
    }, 
    {
      "op": "tvm_op", 
      "name": "batch_norm4_add_beta_expand", 
      "attrs": {
        "flatten_data": "0", 
        "func_name": "fuse_expand_dims_1", 
        "num_inputs": "1", 
        "num_outputs": "1"
      }, 
      "inputs": [[94, 0, 0]]
    }, 
    {
      "op": "tvm_op", 
      "name": "batch_norm4_out", 
      "attrs": {
        "flatten_data": "0", 
        "func_name": "fuse_broadcast_add_2", 
        "num_inputs": "2", 
        "num_outputs": "1"
      }, 
      "inputs": [[89, 0, 0], [95, 0, 0]]
    }, 
    {
      "op": "tvm_op", 
      "name": "elemwise_add0", 
      "attrs": {
        "flatten_data": "1", 
        "func_name": "fuse_elemwise_add_2", 
        "num_inputs": "2", 
        "num_outputs": "1"
      }, 
      "inputs": [[78, 0, 0], [96, 0, 0]]
    }, 
    {
      "op": "tvm_op", 
      "name": "relu3", 
      "attrs": {
        "flatten_data": "1", 
        "func_name": "fuse_relu_2", 
        "num_inputs": "1", 
        "num_outputs": "1"
      }, 
      "inputs": [[97, 0, 0]]
    }, 
    {
      "op": "null", 
      "name": "_param_31", 
      "inputs": []
    }, 
    {
      "op": "null", 
      "name": "_param_32", 
      "inputs": []
    }, 
    {
      "op": "tvm_op", 
      "name": "conv2d5", 
      "attrs": {
        "flatten_data": "0", 
        "func_name": "fuse_conv2d_4", 
        "num_inputs": "3", 
        "num_outputs": "1"
      }, 
      "inputs": [[98, 0, 0], [99, 0, 0], [100, 0, 0]]
    }, 
    {
      "op": "null", 
      "name": "_param_36", 
      "inputs": []
    }, 
    {
      "op": "tvm_op", 
      "name": "batch_norm5_add_eps", 
      "attrs": {
        "flatten_data": "1", 
        "func_name": "fuse___add_scalar__", 
        "num_inputs": "1", 
        "num_outputs": "1"
      }, 
      "inputs": [[102, 0, 0]]
    }, 
    {
      "op": "tvm_op", 
      "name": "batch_norm5_sqrt", 
      "attrs": {
        "flatten_data": "1", 
        "func_name": "fuse_sqrt", 
        "num_inputs": "1", 
        "num_outputs": "1"
      }, 
      "inputs": [[103, 0, 0]]
    }, 
    {
      "op": "tvm_op", 
      "name": "batch_norm5_div", 
      "attrs": {
        "flatten_data": "1", 
        "func_name": "fuse___rdiv_scalar__", 
        "num_inputs": "1", 
        "num_outputs": "1"
      }, 
      "inputs": [[104, 0, 0]]
    }, 
    {
      "op": "null", 
      "name": "_param_33", 
      "inputs": []
    }, 
    {
      "op": "tvm_op", 
      "name": "batch_norm5_gamma_mul_div", 
      "attrs": {
        "flatten_data": "1", 
        "func_name": "fuse_elemwise_mul", 
        "num_inputs": "2", 
        "num_outputs": "1"
      }, 
      "inputs": [[105, 0, 0], [106, 0, 0]]
    }, 
    {
      "op": "tvm_op", 
      "name": "batch_norm5_gamma_mul_div_expand", 
      "attrs": {
        "flatten_data": "0", 
        "func_name": "fuse_expand_dims", 
        "num_inputs": "1", 
        "num_outputs": "1"
      }, 
      "inputs": [[107, 0, 0]]
    }, 
    {
      "op": "tvm_op", 
      "name": "batch_norm5_a_mul_data", 
      "attrs": {
        "flatten_data": "0", 
        "func_name": "fuse_broadcast_mul_1", 
        "num_inputs": "2", 
        "num_outputs": "1"
      }, 
      "inputs": [[101, 0, 0], [108, 0, 0]]
    }, 
    {
      "op": "null", 
      "name": "_param_35", 
      "inputs": []
    }, 
    {
      "op": "tvm_op", 
      "name": "batch_norm5_neg_mean", 
      "attrs": {
        "flatten_data": "1", 
        "func_name": "fuse_negative", 
        "num_inputs": "1", 
        "num_outputs": "1"
      }, 
      "inputs": [[110, 0, 0]]
    }, 
    {
      "op": "tvm_op", 
      "name": "batch_norm5_neg_mean_mul_a", 
      "attrs": {
        "flatten_data": "1", 
        "func_name": "fuse_elemwise_mul", 
        "num_inputs": "2", 
        "num_outputs": "1"
      }, 
      "inputs": [[111, 0, 0], [107, 0, 0]]
    }, 
    {
      "op": "null", 
      "name": "_param_34", 
      "inputs": []
    }, 
    {
      "op": "tvm_op", 
      "name": "batch_norm5_add_beta", 
      "attrs": {
        "flatten_data": "1", 
        "func_name": "fuse_elemwise_add", 
        "num_inputs": "2", 
        "num_outputs": "1"
      }, 
      "inputs": [[112, 0, 0], [113, 0, 0]]
    }, 
    {
      "op": "tvm_op", 
      "name": "batch_norm5_add_beta_expand", 
      "attrs": {
        "flatten_data": "0", 
        "func_name": "fuse_expand_dims", 
        "num_inputs": "1", 
        "num_outputs": "1"
      }, 
      "inputs": [[114, 0, 0]]
    }, 
    {
      "op": "tvm_op", 
      "name": "batch_norm5_out", 
      "attrs": {
        "flatten_data": "0", 
        "func_name": "fuse_broadcast_add_1", 
        "num_inputs": "2", 
        "num_outputs": "1"
      }, 
      "inputs": [[109, 0, 0], [115, 0, 0]]
    }, 
    {
      "op": "tvm_op", 
      "name": "relu4", 
      "attrs": {
        "flatten_data": "1", 
        "func_name": "fuse_relu_1", 
        "num_inputs": "1", 
        "num_outputs": "1"
      }, 
      "inputs": [[116, 0, 0]]
    }, 
    {
      "op": "tvm_op", 
      "name": "pad2", 
      "attrs": {
        "flatten_data": "0", 
        "func_name": "fuse_pad_1", 
        "num_inputs": "1", 
        "num_outputs": "1"
      }, 
      "inputs": [[117, 0, 0]]
    }, 
    {
      "op": "null", 
      "name": "_param_37", 
      "inputs": []
    }, 
    {
      "op": "null", 
      "name": "_param_38", 
      "inputs": []
    }, 
    {
      "op": "tvm_op", 
      "name": "conv2d6", 
      "attrs": {
        "flatten_data": "0", 
        "func_name": "fuse_conv2d_2", 
        "num_inputs": "3", 
        "num_outputs": "1"
      }, 
      "inputs": [[118, 0, 0], [119, 0, 0], [120, 0, 0]]
    }, 
    {
      "op": "null", 
      "name": "_param_42", 
      "inputs": []
    }, 
    {
      "op": "tvm_op", 
      "name": "batch_norm6_add_eps", 
      "attrs": {
        "flatten_data": "1", 
        "func_name": "fuse___add_scalar__", 
        "num_inputs": "1", 
        "num_outputs": "1"
      }, 
      "inputs": [[122, 0, 0]]
    }, 
    {
      "op": "tvm_op", 
      "name": "batch_norm6_sqrt", 
      "attrs": {
        "flatten_data": "1", 
        "func_name": "fuse_sqrt", 
        "num_inputs": "1", 
        "num_outputs": "1"
      }, 
      "inputs": [[123, 0, 0]]
    }, 
    {
      "op": "tvm_op", 
      "name": "batch_norm6_div", 
      "attrs": {
        "flatten_data": "1", 
        "func_name": "fuse___rdiv_scalar__", 
        "num_inputs": "1", 
        "num_outputs": "1"
      }, 
      "inputs": [[124, 0, 0]]
    }, 
    {
      "op": "null", 
      "name": "_param_39", 
      "inputs": []
    }, 
    {
      "op": "tvm_op", 
      "name": "batch_norm6_gamma_mul_div", 
      "attrs": {
        "flatten_data": "1", 
        "func_name": "fuse_elemwise_mul", 
        "num_inputs": "2", 
        "num_outputs": "1"
      }, 
      "inputs": [[125, 0, 0], [126, 0, 0]]
    }, 
    {
      "op": "tvm_op", 
      "name": "batch_norm6_gamma_mul_div_expand", 
      "attrs": {
        "flatten_data": "0", 
        "func_name": "fuse_expand_dims", 
        "num_inputs": "1", 
        "num_outputs": "1"
      }, 
      "inputs": [[127, 0, 0]]
    }, 
    {
      "op": "tvm_op", 
      "name": "batch_norm6_a_mul_data", 
      "attrs": {
        "flatten_data": "0", 
        "func_name": "fuse_broadcast_mul_1", 
        "num_inputs": "2", 
        "num_outputs": "1"
      }, 
      "inputs": [[121, 0, 0], [128, 0, 0]]
    }, 
    {
      "op": "null", 
      "name": "_param_41", 
      "inputs": []
    }, 
    {
      "op": "tvm_op", 
      "name": "batch_norm6_neg_mean", 
      "attrs": {
        "flatten_data": "1", 
        "func_name": "fuse_negative", 
        "num_inputs": "1", 
        "num_outputs": "1"
      }, 
      "inputs": [[130, 0, 0]]
    }, 
    {
      "op": "tvm_op", 
      "name": "batch_norm6_neg_mean_mul_a", 
      "attrs": {
        "flatten_data": "1", 
        "func_name": "fuse_elemwise_mul", 
        "num_inputs": "2", 
        "num_outputs": "1"
      }, 
      "inputs": [[131, 0, 0], [127, 0, 0]]
    }, 
    {
      "op": "null", 
      "name": "_param_40", 
      "inputs": []
    }, 
    {
      "op": "tvm_op", 
      "name": "batch_norm6_add_beta", 
      "attrs": {
        "flatten_data": "1", 
        "func_name": "fuse_elemwise_add", 
        "num_inputs": "2", 
        "num_outputs": "1"
      }, 
      "inputs": [[132, 0, 0], [133, 0, 0]]
    }, 
    {
      "op": "tvm_op", 
      "name": "batch_norm6_add_beta_expand", 
      "attrs": {
        "flatten_data": "0", 
        "func_name": "fuse_expand_dims", 
        "num_inputs": "1", 
        "num_outputs": "1"
      }, 
      "inputs": [[134, 0, 0]]
    }, 
    {
      "op": "tvm_op", 
      "name": "batch_norm6_out", 
      "attrs": {
        "flatten_data": "0", 
        "func_name": "fuse_broadcast_add_1", 
        "num_inputs": "2", 
        "num_outputs": "1"
      }, 
      "inputs": [[129, 0, 0], [135, 0, 0]]
    }, 
    {
      "op": "tvm_op", 
      "name": "relu5", 
      "attrs": {
        "flatten_data": "1", 
        "func_name": "fuse_relu_1", 
        "num_inputs": "1", 
        "num_outputs": "1"
      }, 
      "inputs": [[136, 0, 0]]
    }, 
    {
      "op": "null", 
      "name": "_param_43", 
      "inputs": []
    }, 
    {
      "op": "null", 
      "name": "_param_44", 
      "inputs": []
    }, 
    {
      "op": "tvm_op", 
      "name": "conv2d7", 
      "attrs": {
        "flatten_data": "0", 
        "func_name": "fuse_conv2d_3", 
        "num_inputs": "3", 
        "num_outputs": "1"
      }, 
      "inputs": [[137, 0, 0], [138, 0, 0], [139, 0, 0]]
    }, 
    {
      "op": "null", 
      "name": "_param_48", 
      "inputs": []
    }, 
    {
      "op": "tvm_op", 
      "name": "batch_norm7_add_eps", 
      "attrs": {
        "flatten_data": "1", 
        "func_name": "fuse___add_scalar___1", 
        "num_inputs": "1", 
        "num_outputs": "1"
      }, 
      "inputs": [[141, 0, 0]]
    }, 
    {
      "op": "tvm_op", 
      "name": "batch_norm7_sqrt", 
      "attrs": {
        "flatten_data": "1", 
        "func_name": "fuse_sqrt_1", 
        "num_inputs": "1", 
        "num_outputs": "1"
      }, 
      "inputs": [[142, 0, 0]]
    }, 
    {
      "op": "tvm_op", 
      "name": "batch_norm7_div", 
      "attrs": {
        "flatten_data": "1", 
        "func_name": "fuse___rdiv_scalar___1", 
        "num_inputs": "1", 
        "num_outputs": "1"
      }, 
      "inputs": [[143, 0, 0]]
    }, 
    {
      "op": "null", 
      "name": "_param_45", 
      "inputs": []
    }, 
    {
      "op": "tvm_op", 
      "name": "batch_norm7_gamma_mul_div", 
      "attrs": {
        "flatten_data": "1", 
        "func_name": "fuse_elemwise_mul_1", 
        "num_inputs": "2", 
        "num_outputs": "1"
      }, 
      "inputs": [[144, 0, 0], [145, 0, 0]]
    }, 
    {
      "op": "tvm_op", 
      "name": "batch_norm7_gamma_mul_div_expand", 
      "attrs": {
        "flatten_data": "0", 
        "func_name": "fuse_expand_dims_1", 
        "num_inputs": "1", 
        "num_outputs": "1"
      }, 
      "inputs": [[146, 0, 0]]
    }, 
    {
      "op": "tvm_op", 
      "name": "batch_norm7_a_mul_data", 
      "attrs": {
        "flatten_data": "0", 
        "func_name": "fuse_broadcast_mul_2", 
        "num_inputs": "2", 
        "num_outputs": "1"
      }, 
      "inputs": [[140, 0, 0], [147, 0, 0]]
    }, 
    {
      "op": "null", 
      "name": "_param_47", 
      "inputs": []
    }, 
    {
      "op": "tvm_op", 
      "name": "batch_norm7_neg_mean", 
      "attrs": {
        "flatten_data": "1", 
        "func_name": "fuse_negative_1", 
        "num_inputs": "1", 
        "num_outputs": "1"
      }, 
      "inputs": [[149, 0, 0]]
    }, 
    {
      "op": "tvm_op", 
      "name": "batch_norm7_neg_mean_mul_a", 
      "attrs": {
        "flatten_data": "1", 
        "func_name": "fuse_elemwise_mul_1", 
        "num_inputs": "2", 
        "num_outputs": "1"
      }, 
      "inputs": [[150, 0, 0], [146, 0, 0]]
    }, 
    {
      "op": "null", 
      "name": "_param_46", 
      "inputs": []
    }, 
    {
      "op": "tvm_op", 
      "name": "batch_norm7_add_beta", 
      "attrs": {
        "flatten_data": "1", 
        "func_name": "fuse_elemwise_add_1", 
        "num_inputs": "2", 
        "num_outputs": "1"
      }, 
      "inputs": [[151, 0, 0], [152, 0, 0]]
    }, 
    {
      "op": "tvm_op", 
      "name": "batch_norm7_add_beta_expand", 
      "attrs": {
        "flatten_data": "0", 
        "func_name": "fuse_expand_dims_1", 
        "num_inputs": "1", 
        "num_outputs": "1"
      }, 
      "inputs": [[153, 0, 0]]
    }, 
    {
      "op": "tvm_op", 
      "name": "batch_norm7_out", 
      "attrs": {
        "flatten_data": "0", 
        "func_name": "fuse_broadcast_add_2", 
        "num_inputs": "2", 
        "num_outputs": "1"
      }, 
      "inputs": [[148, 0, 0], [154, 0, 0]]
    }, 
    {
      "op": "tvm_op", 
      "name": "elemwise_add1", 
      "attrs": {
        "flatten_data": "1", 
        "func_name": "fuse_elemwise_add_2", 
        "num_inputs": "2", 
        "num_outputs": "1"
      }, 
      "inputs": [[155, 0, 0], [98, 0, 0]]
    }, 
    {
      "op": "tvm_op", 
      "name": "relu6", 
      "attrs": {
        "flatten_data": "1", 
        "func_name": "fuse_relu_2", 
        "num_inputs": "1", 
        "num_outputs": "1"
      }, 
      "inputs": [[156, 0, 0]]
    }, 
    {
      "op": "null", 
      "name": "_param_49", 
      "inputs": []
    }, 
    {
      "op": "null", 
      "name": "_param_50", 
      "inputs": []
    }, 
    {
      "op": "tvm_op", 
      "name": "conv2d8", 
      "attrs": {
        "flatten_data": "0", 
        "func_name": "fuse_conv2d_4", 
        "num_inputs": "3", 
        "num_outputs": "1"
      }, 
      "inputs": [[157, 0, 0], [158, 0, 0], [159, 0, 0]]
    }, 
    {
      "op": "null", 
      "name": "_param_54", 
      "inputs": []
    }, 
    {
      "op": "tvm_op", 
      "name": "batch_norm8_add_eps", 
      "attrs": {
        "flatten_data": "1", 
        "func_name": "fuse___add_scalar__", 
        "num_inputs": "1", 
        "num_outputs": "1"
      }, 
      "inputs": [[161, 0, 0]]
    }, 
    {
      "op": "tvm_op", 
      "name": "batch_norm8_sqrt", 
      "attrs": {
        "flatten_data": "1", 
        "func_name": "fuse_sqrt", 
        "num_inputs": "1", 
        "num_outputs": "1"
      }, 
      "inputs": [[162, 0, 0]]
    }, 
    {
      "op": "tvm_op", 
      "name": "batch_norm8_div", 
      "attrs": {
        "flatten_data": "1", 
        "func_name": "fuse___rdiv_scalar__", 
        "num_inputs": "1", 
        "num_outputs": "1"
      }, 
      "inputs": [[163, 0, 0]]
    }, 
    {
      "op": "null", 
      "name": "_param_51", 
      "inputs": []
    }, 
    {
      "op": "tvm_op", 
      "name": "batch_norm8_gamma_mul_div", 
      "attrs": {
        "flatten_data": "1", 
        "func_name": "fuse_elemwise_mul", 
        "num_inputs": "2", 
        "num_outputs": "1"
      }, 
      "inputs": [[164, 0, 0], [165, 0, 0]]
    }, 
    {
      "op": "tvm_op", 
      "name": "batch_norm8_gamma_mul_div_expand", 
      "attrs": {
        "flatten_data": "0", 
        "func_name": "fuse_expand_dims", 
        "num_inputs": "1", 
        "num_outputs": "1"
      }, 
      "inputs": [[166, 0, 0]]
    }, 
    {
      "op": "tvm_op", 
      "name": "batch_norm8_a_mul_data", 
      "attrs": {
        "flatten_data": "0", 
        "func_name": "fuse_broadcast_mul_1", 
        "num_inputs": "2", 
        "num_outputs": "1"
      }, 
      "inputs": [[160, 0, 0], [167, 0, 0]]
    }, 
    {
      "op": "null", 
      "name": "_param_53", 
      "inputs": []
    }, 
    {
      "op": "tvm_op", 
      "name": "batch_norm8_neg_mean", 
      "attrs": {
        "flatten_data": "1", 
        "func_name": "fuse_negative", 
        "num_inputs": "1", 
        "num_outputs": "1"
      }, 
      "inputs": [[169, 0, 0]]
    }, 
    {
      "op": "tvm_op", 
      "name": "batch_norm8_neg_mean_mul_a", 
      "attrs": {
        "flatten_data": "1", 
        "func_name": "fuse_elemwise_mul", 
        "num_inputs": "2", 
        "num_outputs": "1"
      }, 
      "inputs": [[170, 0, 0], [166, 0, 0]]
    }, 
    {
      "op": "null", 
      "name": "_param_52", 
      "inputs": []
    }, 
    {
      "op": "tvm_op", 
      "name": "batch_norm8_add_beta", 
      "attrs": {
        "flatten_data": "1", 
        "func_name": "fuse_elemwise_add", 
        "num_inputs": "2", 
        "num_outputs": "1"
      }, 
      "inputs": [[171, 0, 0], [172, 0, 0]]
    }, 
    {
      "op": "tvm_op", 
      "name": "batch_norm8_add_beta_expand", 
      "attrs": {
        "flatten_data": "0", 
        "func_name": "fuse_expand_dims", 
        "num_inputs": "1", 
        "num_outputs": "1"
      }, 
      "inputs": [[173, 0, 0]]
    }, 
    {
      "op": "tvm_op", 
      "name": "batch_norm8_out", 
      "attrs": {
        "flatten_data": "0", 
        "func_name": "fuse_broadcast_add_1", 
        "num_inputs": "2", 
        "num_outputs": "1"
      }, 
      "inputs": [[168, 0, 0], [174, 0, 0]]
    }, 
    {
      "op": "tvm_op", 
      "name": "relu7", 
      "attrs": {
        "flatten_data": "1", 
        "func_name": "fuse_relu_1", 
        "num_inputs": "1", 
        "num_outputs": "1"
      }, 
      "inputs": [[175, 0, 0]]
    }, 
    {
      "op": "tvm_op", 
      "name": "pad3", 
      "attrs": {
        "flatten_data": "0", 
        "func_name": "fuse_pad_1", 
        "num_inputs": "1", 
        "num_outputs": "1"
      }, 
      "inputs": [[176, 0, 0]]
    }, 
    {
      "op": "null", 
      "name": "_param_55", 
      "inputs": []
    }, 
    {
      "op": "null", 
      "name": "_param_56", 
      "inputs": []
    }, 
    {
      "op": "tvm_op", 
      "name": "conv2d9", 
      "attrs": {
        "flatten_data": "0", 
        "func_name": "fuse_conv2d_2", 
        "num_inputs": "3", 
        "num_outputs": "1"
      }, 
      "inputs": [[177, 0, 0], [178, 0, 0], [179, 0, 0]]
    }, 
    {
      "op": "null", 
      "name": "_param_60", 
      "inputs": []
    }, 
    {
      "op": "tvm_op", 
      "name": "batch_norm9_add_eps", 
      "attrs": {
        "flatten_data": "1", 
        "func_name": "fuse___add_scalar__", 
        "num_inputs": "1", 
        "num_outputs": "1"
      }, 
      "inputs": [[181, 0, 0]]
    }, 
    {
      "op": "tvm_op", 
      "name": "batch_norm9_sqrt", 
      "attrs": {
        "flatten_data": "1", 
        "func_name": "fuse_sqrt", 
        "num_inputs": "1", 
        "num_outputs": "1"
      }, 
      "inputs": [[182, 0, 0]]
    }, 
    {
      "op": "tvm_op", 
      "name": "batch_norm9_div", 
      "attrs": {
        "flatten_data": "1", 
        "func_name": "fuse___rdiv_scalar__", 
        "num_inputs": "1", 
        "num_outputs": "1"
      }, 
      "inputs": [[183, 0, 0]]
    }, 
    {
      "op": "null", 
      "name": "_param_57", 
      "inputs": []
    }, 
    {
      "op": "tvm_op", 
      "name": "batch_norm9_gamma_mul_div", 
      "attrs": {
        "flatten_data": "1", 
        "func_name": "fuse_elemwise_mul", 
        "num_inputs": "2", 
        "num_outputs": "1"
      }, 
      "inputs": [[184, 0, 0], [185, 0, 0]]
    }, 
    {
      "op": "tvm_op", 
      "name": "batch_norm9_gamma_mul_div_expand", 
      "attrs": {
        "flatten_data": "0", 
        "func_name": "fuse_expand_dims", 
        "num_inputs": "1", 
        "num_outputs": "1"
      }, 
      "inputs": [[186, 0, 0]]
    }, 
    {
      "op": "tvm_op", 
      "name": "batch_norm9_a_mul_data", 
      "attrs": {
        "flatten_data": "0", 
        "func_name": "fuse_broadcast_mul_1", 
        "num_inputs": "2", 
        "num_outputs": "1"
      }, 
      "inputs": [[180, 0, 0], [187, 0, 0]]
    }, 
    {
      "op": "null", 
      "name": "_param_59", 
      "inputs": []
    }, 
    {
      "op": "tvm_op", 
      "name": "batch_norm9_neg_mean", 
      "attrs": {
        "flatten_data": "1", 
        "func_name": "fuse_negative", 
        "num_inputs": "1", 
        "num_outputs": "1"
      }, 
      "inputs": [[189, 0, 0]]
    }, 
    {
      "op": "tvm_op", 
      "name": "batch_norm9_neg_mean_mul_a", 
      "attrs": {
        "flatten_data": "1", 
        "func_name": "fuse_elemwise_mul", 
        "num_inputs": "2", 
        "num_outputs": "1"
      }, 
      "inputs": [[190, 0, 0], [186, 0, 0]]
    }, 
    {
      "op": "null", 
      "name": "_param_58", 
      "inputs": []
    }, 
    {
      "op": "tvm_op", 
      "name": "batch_norm9_add_beta", 
      "attrs": {
        "flatten_data": "1", 
        "func_name": "fuse_elemwise_add", 
        "num_inputs": "2", 
        "num_outputs": "1"
      }, 
      "inputs": [[191, 0, 0], [192, 0, 0]]
    }, 
    {
      "op": "tvm_op", 
      "name": "batch_norm9_add_beta_expand", 
      "attrs": {
        "flatten_data": "0", 
        "func_name": "fuse_expand_dims", 
        "num_inputs": "1", 
        "num_outputs": "1"
      }, 
      "inputs": [[193, 0, 0]]
    }, 
    {
      "op": "tvm_op", 
      "name": "batch_norm9_out", 
      "attrs": {
        "flatten_data": "0", 
        "func_name": "fuse_broadcast_add_1", 
        "num_inputs": "2", 
        "num_outputs": "1"
      }, 
      "inputs": [[188, 0, 0], [194, 0, 0]]
    }, 
    {
      "op": "tvm_op", 
      "name": "relu8", 
      "attrs": {
        "flatten_data": "1", 
        "func_name": "fuse_relu_1", 
        "num_inputs": "1", 
        "num_outputs": "1"
      }, 
      "inputs": [[195, 0, 0]]
    }, 
    {
      "op": "null", 
      "name": "_param_61", 
      "inputs": []
    }, 
    {
      "op": "null", 
      "name": "_param_62", 
      "inputs": []
    }, 
    {
      "op": "tvm_op", 
      "name": "conv2d10", 
      "attrs": {
        "flatten_data": "0", 
        "func_name": "fuse_conv2d_3", 
        "num_inputs": "3", 
        "num_outputs": "1"
      }, 
      "inputs": [[196, 0, 0], [197, 0, 0], [198, 0, 0]]
    }, 
    {
      "op": "null", 
      "name": "_param_66", 
      "inputs": []
    }, 
    {
      "op": "tvm_op", 
      "name": "batch_norm10_add_eps", 
      "attrs": {
        "flatten_data": "1", 
        "func_name": "fuse___add_scalar___1", 
        "num_inputs": "1", 
        "num_outputs": "1"
      }, 
      "inputs": [[200, 0, 0]]
    }, 
    {
      "op": "tvm_op", 
      "name": "batch_norm10_sqrt", 
      "attrs": {
        "flatten_data": "1", 
        "func_name": "fuse_sqrt_1", 
        "num_inputs": "1", 
        "num_outputs": "1"
      }, 
      "inputs": [[201, 0, 0]]
    }, 
    {
      "op": "tvm_op", 
      "name": "batch_norm10_div", 
      "attrs": {
        "flatten_data": "1", 
        "func_name": "fuse___rdiv_scalar___1", 
        "num_inputs": "1", 
        "num_outputs": "1"
      }, 
      "inputs": [[202, 0, 0]]
    }, 
    {
      "op": "null", 
      "name": "_param_63", 
      "inputs": []
    }, 
    {
      "op": "tvm_op", 
      "name": "batch_norm10_gamma_mul_div", 
      "attrs": {
        "flatten_data": "1", 
        "func_name": "fuse_elemwise_mul_1", 
        "num_inputs": "2", 
        "num_outputs": "1"
      }, 
      "inputs": [[203, 0, 0], [204, 0, 0]]
    }, 
    {
      "op": "tvm_op", 
      "name": "batch_norm10_gamma_mul_div_expand", 
      "attrs": {
        "flatten_data": "0", 
        "func_name": "fuse_expand_dims_1", 
        "num_inputs": "1", 
        "num_outputs": "1"
      }, 
      "inputs": [[205, 0, 0]]
    }, 
    {
      "op": "tvm_op", 
      "name": "batch_norm10_a_mul_data", 
      "attrs": {
        "flatten_data": "0", 
        "func_name": "fuse_broadcast_mul_2", 
        "num_inputs": "2", 
        "num_outputs": "1"
      }, 
      "inputs": [[199, 0, 0], [206, 0, 0]]
    }, 
    {
      "op": "null", 
      "name": "_param_65", 
      "inputs": []
    }, 
    {
      "op": "tvm_op", 
      "name": "batch_norm10_neg_mean", 
      "attrs": {
        "flatten_data": "1", 
        "func_name": "fuse_negative_1", 
        "num_inputs": "1", 
        "num_outputs": "1"
      }, 
      "inputs": [[208, 0, 0]]
    }, 
    {
      "op": "tvm_op", 
      "name": "batch_norm10_neg_mean_mul_a", 
      "attrs": {
        "flatten_data": "1", 
        "func_name": "fuse_elemwise_mul_1", 
        "num_inputs": "2", 
        "num_outputs": "1"
      }, 
      "inputs": [[209, 0, 0], [205, 0, 0]]
    }, 
    {
      "op": "null", 
      "name": "_param_64", 
      "inputs": []
    }, 
    {
      "op": "tvm_op", 
      "name": "batch_norm10_add_beta", 
      "attrs": {
        "flatten_data": "1", 
        "func_name": "fuse_elemwise_add_1", 
        "num_inputs": "2", 
        "num_outputs": "1"
      }, 
      "inputs": [[210, 0, 0], [211, 0, 0]]
    }, 
    {
      "op": "tvm_op", 
      "name": "batch_norm10_add_beta_expand", 
      "attrs": {
        "flatten_data": "0", 
        "func_name": "fuse_expand_dims_1", 
        "num_inputs": "1", 
        "num_outputs": "1"
      }, 
      "inputs": [[212, 0, 0]]
    }, 
    {
      "op": "tvm_op", 
      "name": "batch_norm10_out", 
      "attrs": {
        "flatten_data": "0", 
        "func_name": "fuse_broadcast_add_2", 
        "num_inputs": "2", 
        "num_outputs": "1"
      }, 
      "inputs": [[207, 0, 0], [213, 0, 0]]
    }, 
    {
      "op": "tvm_op", 
      "name": "elemwise_add2", 
      "attrs": {
        "flatten_data": "1", 
        "func_name": "fuse_elemwise_add_2", 
        "num_inputs": "2", 
        "num_outputs": "1"
      }, 
      "inputs": [[214, 0, 0], [157, 0, 0]]
    }, 
    {
      "op": "tvm_op", 
      "name": "relu9", 
      "attrs": {
        "flatten_data": "1", 
        "func_name": "fuse_relu_2", 
        "num_inputs": "1", 
        "num_outputs": "1"
      }, 
      "inputs": [[215, 0, 0]]
    }, 
    {
      "op": "null", 
      "name": "_param_67", 
      "inputs": []
    }, 
    {
      "op": "null", 
      "name": "_param_68", 
      "inputs": []
    }, 
    {
      "op": "tvm_op", 
      "name": "conv2d11", 
      "attrs": {
        "flatten_data": "0", 
        "func_name": "fuse_conv2d_5", 
        "num_inputs": "3", 
        "num_outputs": "1"
      }, 
      "inputs": [[216, 0, 0], [217, 0, 0], [218, 0, 0]]
    }, 
    {
      "op": "null", 
      "name": "_param_72", 
      "inputs": []
    }, 
    {
      "op": "tvm_op", 
      "name": "batch_norm11_add_eps", 
      "attrs": {
        "flatten_data": "1", 
        "func_name": "fuse___add_scalar___2", 
        "num_inputs": "1", 
        "num_outputs": "1"
      }, 
      "inputs": [[220, 0, 0]]
    }, 
    {
      "op": "tvm_op", 
      "name": "batch_norm11_sqrt", 
      "attrs": {
        "flatten_data": "1", 
        "func_name": "fuse_sqrt_2", 
        "num_inputs": "1", 
        "num_outputs": "1"
      }, 
      "inputs": [[221, 0, 0]]
    }, 
    {
      "op": "tvm_op", 
      "name": "batch_norm11_div", 
      "attrs": {
        "flatten_data": "1", 
        "func_name": "fuse___rdiv_scalar___2", 
        "num_inputs": "1", 
        "num_outputs": "1"
      }, 
      "inputs": [[222, 0, 0]]
    }, 
    {
      "op": "null", 
      "name": "_param_69", 
      "inputs": []
    }, 
    {
      "op": "tvm_op", 
      "name": "batch_norm11_gamma_mul_div", 
      "attrs": {
        "flatten_data": "1", 
        "func_name": "fuse_elemwise_mul_2", 
        "num_inputs": "2", 
        "num_outputs": "1"
      }, 
      "inputs": [[223, 0, 0], [224, 0, 0]]
    }, 
    {
      "op": "tvm_op", 
      "name": "batch_norm11_gamma_mul_div_expand", 
      "attrs": {
        "flatten_data": "0", 
        "func_name": "fuse_expand_dims_2", 
        "num_inputs": "1", 
        "num_outputs": "1"
      }, 
      "inputs": [[225, 0, 0]]
    }, 
    {
      "op": "tvm_op", 
      "name": "batch_norm11_a_mul_data", 
      "attrs": {
        "flatten_data": "0", 
        "func_name": "fuse_broadcast_mul_3", 
        "num_inputs": "2", 
        "num_outputs": "1"
      }, 
      "inputs": [[219, 0, 0], [226, 0, 0]]
    }, 
    {
      "op": "null", 
      "name": "_param_71", 
      "inputs": []
    }, 
    {
      "op": "tvm_op", 
      "name": "batch_norm11_neg_mean", 
      "attrs": {
        "flatten_data": "1", 
        "func_name": "fuse_negative_2", 
        "num_inputs": "1", 
        "num_outputs": "1"
      }, 
      "inputs": [[228, 0, 0]]
    }, 
    {
      "op": "tvm_op", 
      "name": "batch_norm11_neg_mean_mul_a", 
      "attrs": {
        "flatten_data": "1", 
        "func_name": "fuse_elemwise_mul_2", 
        "num_inputs": "2", 
        "num_outputs": "1"
      }, 
      "inputs": [[229, 0, 0], [225, 0, 0]]
    }, 
    {
      "op": "null", 
      "name": "_param_70", 
      "inputs": []
    }, 
    {
      "op": "tvm_op", 
      "name": "batch_norm11_add_beta", 
      "attrs": {
        "flatten_data": "1", 
        "func_name": "fuse_elemwise_add_3", 
        "num_inputs": "2", 
        "num_outputs": "1"
      }, 
      "inputs": [[230, 0, 0], [231, 0, 0]]
    }, 
    {
      "op": "tvm_op", 
      "name": "batch_norm11_add_beta_expand", 
      "attrs": {
        "flatten_data": "0", 
        "func_name": "fuse_expand_dims_2", 
        "num_inputs": "1", 
        "num_outputs": "1"
      }, 
      "inputs": [[232, 0, 0]]
    }, 
    {
      "op": "tvm_op", 
      "name": "batch_norm11_out", 
      "attrs": {
        "flatten_data": "0", 
        "func_name": "fuse_broadcast_add_3", 
        "num_inputs": "2", 
        "num_outputs": "1"
      }, 
      "inputs": [[227, 0, 0], [233, 0, 0]]
    }, 
    {
      "op": "tvm_op", 
      "name": "relu10", 
      "attrs": {
        "flatten_data": "1", 
        "func_name": "fuse_relu_3", 
        "num_inputs": "1", 
        "num_outputs": "1"
      }, 
      "inputs": [[234, 0, 0]]
    }, 
    {
      "op": "tvm_op", 
      "name": "pad4", 
      "attrs": {
        "flatten_data": "0", 
        "func_name": "fuse_pad_2", 
        "num_inputs": "1", 
        "num_outputs": "1"
      }, 
      "inputs": [[235, 0, 0]]
    }, 
    {
      "op": "null", 
      "name": "_param_73", 
      "inputs": []
    }, 
    {
      "op": "null", 
      "name": "_param_74", 
      "inputs": []
    }, 
    {
      "op": "tvm_op", 
      "name": "conv2d12", 
      "attrs": {
        "flatten_data": "0", 
        "func_name": "fuse_conv2d_6", 
        "num_inputs": "3", 
        "num_outputs": "1"
      }, 
      "inputs": [[236, 0, 0], [237, 0, 0], [238, 0, 0]]
    }, 
    {
      "op": "null", 
      "name": "_param_78", 
      "inputs": []
    }, 
    {
      "op": "tvm_op", 
      "name": "batch_norm12_add_eps", 
      "attrs": {
        "flatten_data": "1", 
        "func_name": "fuse___add_scalar___2", 
        "num_inputs": "1", 
        "num_outputs": "1"
      }, 
      "inputs": [[240, 0, 0]]
    }, 
    {
      "op": "tvm_op", 
      "name": "batch_norm12_sqrt", 
      "attrs": {
        "flatten_data": "1", 
        "func_name": "fuse_sqrt_2", 
        "num_inputs": "1", 
        "num_outputs": "1"
      }, 
      "inputs": [[241, 0, 0]]
    }, 
    {
      "op": "tvm_op", 
      "name": "batch_norm12_div", 
      "attrs": {
        "flatten_data": "1", 
        "func_name": "fuse___rdiv_scalar___2", 
        "num_inputs": "1", 
        "num_outputs": "1"
      }, 
      "inputs": [[242, 0, 0]]
    }, 
    {
      "op": "null", 
      "name": "_param_75", 
      "inputs": []
    }, 
    {
      "op": "tvm_op", 
      "name": "batch_norm12_gamma_mul_div", 
      "attrs": {
        "flatten_data": "1", 
        "func_name": "fuse_elemwise_mul_2", 
        "num_inputs": "2", 
        "num_outputs": "1"
      }, 
      "inputs": [[243, 0, 0], [244, 0, 0]]
    }, 
    {
      "op": "tvm_op", 
      "name": "batch_norm12_gamma_mul_div_expand", 
      "attrs": {
        "flatten_data": "0", 
        "func_name": "fuse_expand_dims_2", 
        "num_inputs": "1", 
        "num_outputs": "1"
      }, 
      "inputs": [[245, 0, 0]]
    }, 
    {
      "op": "tvm_op", 
      "name": "batch_norm12_a_mul_data", 
      "attrs": {
        "flatten_data": "0", 
        "func_name": "fuse_broadcast_mul_3", 
        "num_inputs": "2", 
        "num_outputs": "1"
      }, 
      "inputs": [[239, 0, 0], [246, 0, 0]]
    }, 
    {
      "op": "null", 
      "name": "_param_77", 
      "inputs": []
    }, 
    {
      "op": "tvm_op", 
      "name": "batch_norm12_neg_mean", 
      "attrs": {
        "flatten_data": "1", 
        "func_name": "fuse_negative_2", 
        "num_inputs": "1", 
        "num_outputs": "1"
      }, 
      "inputs": [[248, 0, 0]]
    }, 
    {
      "op": "tvm_op", 
      "name": "batch_norm12_neg_mean_mul_a", 
      "attrs": {
        "flatten_data": "1", 
        "func_name": "fuse_elemwise_mul_2", 
        "num_inputs": "2", 
        "num_outputs": "1"
      }, 
      "inputs": [[249, 0, 0], [245, 0, 0]]
    }, 
    {
      "op": "null", 
      "name": "_param_76", 
      "inputs": []
    }, 
    {
      "op": "tvm_op", 
      "name": "batch_norm12_add_beta", 
      "attrs": {
        "flatten_data": "1", 
        "func_name": "fuse_elemwise_add_3", 
        "num_inputs": "2", 
        "num_outputs": "1"
      }, 
      "inputs": [[250, 0, 0], [251, 0, 0]]
    }, 
    {
      "op": "tvm_op", 
      "name": "batch_norm12_add_beta_expand", 
      "attrs": {
        "flatten_data": "0", 
        "func_name": "fuse_expand_dims_2", 
        "num_inputs": "1", 
        "num_outputs": "1"
      }, 
      "inputs": [[252, 0, 0]]
    }, 
    {
      "op": "tvm_op", 
      "name": "batch_norm12_out", 
      "attrs": {
        "flatten_data": "0", 
        "func_name": "fuse_broadcast_add_3", 
        "num_inputs": "2", 
        "num_outputs": "1"
      }, 
      "inputs": [[247, 0, 0], [253, 0, 0]]
    }, 
    {
      "op": "tvm_op", 
      "name": "relu11", 
      "attrs": {
        "flatten_data": "1", 
        "func_name": "fuse_relu_3", 
        "num_inputs": "1", 
        "num_outputs": "1"
      }, 
      "inputs": [[254, 0, 0]]
    }, 
    {
      "op": "null", 
      "name": "_param_79", 
      "inputs": []
    }, 
    {
      "op": "null", 
      "name": "_param_80", 
      "inputs": []
    }, 
    {
      "op": "tvm_op", 
      "name": "conv2d13", 
      "attrs": {
        "flatten_data": "0", 
        "func_name": "fuse_conv2d_7", 
        "num_inputs": "3", 
        "num_outputs": "1"
      }, 
      "inputs": [[255, 0, 0], [256, 0, 0], [257, 0, 0]]
    }, 
    {
      "op": "null", 
      "name": "_param_86", 
      "inputs": []
    }, 
    {
      "op": "tvm_op", 
      "name": "batch_norm13_add_eps", 
      "attrs": {
        "flatten_data": "1", 
        "func_name": "fuse___add_scalar___3", 
        "num_inputs": "1", 
        "num_outputs": "1"
      }, 
      "inputs": [[259, 0, 0]]
    }, 
    {
      "op": "tvm_op", 
      "name": "batch_norm13_sqrt", 
      "attrs": {
        "flatten_data": "1", 
        "func_name": "fuse_sqrt_3", 
        "num_inputs": "1", 
        "num_outputs": "1"
      }, 
      "inputs": [[260, 0, 0]]
    }, 
    {
      "op": "tvm_op", 
      "name": "batch_norm13_div", 
      "attrs": {
        "flatten_data": "1", 
        "func_name": "fuse___rdiv_scalar___3", 
        "num_inputs": "1", 
        "num_outputs": "1"
      }, 
      "inputs": [[261, 0, 0]]
    }, 
    {
      "op": "null", 
      "name": "_param_83", 
      "inputs": []
    }, 
    {
      "op": "tvm_op", 
      "name": "batch_norm13_gamma_mul_div", 
      "attrs": {
        "flatten_data": "1", 
        "func_name": "fuse_elemwise_mul_3", 
        "num_inputs": "2", 
        "num_outputs": "1"
      }, 
      "inputs": [[262, 0, 0], [263, 0, 0]]
    }, 
    {
      "op": "tvm_op", 
      "name": "batch_norm13_gamma_mul_div_expand", 
      "attrs": {
        "flatten_data": "0", 
        "func_name": "fuse_expand_dims_3", 
        "num_inputs": "1", 
        "num_outputs": "1"
      }, 
      "inputs": [[264, 0, 0]]
    }, 
    {
      "op": "tvm_op", 
      "name": "batch_norm13_a_mul_data", 
      "attrs": {
        "flatten_data": "0", 
        "func_name": "fuse_broadcast_mul_4", 
        "num_inputs": "2", 
        "num_outputs": "1"
      }, 
      "inputs": [[258, 0, 0], [265, 0, 0]]
    }, 
    {
      "op": "null", 
      "name": "_param_85", 
      "inputs": []
    }, 
    {
      "op": "tvm_op", 
      "name": "batch_norm13_neg_mean", 
      "attrs": {
        "flatten_data": "1", 
        "func_name": "fuse_negative_3", 
        "num_inputs": "1", 
        "num_outputs": "1"
      }, 
      "inputs": [[267, 0, 0]]
    }, 
    {
      "op": "tvm_op", 
      "name": "batch_norm13_neg_mean_mul_a", 
      "attrs": {
        "flatten_data": "1", 
        "func_name": "fuse_elemwise_mul_3", 
        "num_inputs": "2", 
        "num_outputs": "1"
      }, 
      "inputs": [[268, 0, 0], [264, 0, 0]]
    }, 
    {
      "op": "null", 
      "name": "_param_84", 
      "inputs": []
    }, 
    {
      "op": "tvm_op", 
      "name": "batch_norm13_add_beta", 
      "attrs": {
        "flatten_data": "1", 
        "func_name": "fuse_elemwise_add_4", 
        "num_inputs": "2", 
        "num_outputs": "1"
      }, 
      "inputs": [[269, 0, 0], [270, 0, 0]]
    }, 
    {
      "op": "tvm_op", 
      "name": "batch_norm13_add_beta_expand", 
      "attrs": {
        "flatten_data": "0", 
        "func_name": "fuse_expand_dims_3", 
        "num_inputs": "1", 
        "num_outputs": "1"
      }, 
      "inputs": [[271, 0, 0]]
    }, 
    {
      "op": "tvm_op", 
      "name": "batch_norm13_out", 
      "attrs": {
        "flatten_data": "0", 
        "func_name": "fuse_broadcast_add_4", 
        "num_inputs": "2", 
        "num_outputs": "1"
      }, 
      "inputs": [[266, 0, 0], [272, 0, 0]]
    }, 
    {
      "op": "null", 
      "name": "_param_81", 
      "inputs": []
    }, 
    {
      "op": "null", 
      "name": "_param_82", 
      "inputs": []
    }, 
    {
      "op": "tvm_op", 
      "name": "conv2d14", 
      "attrs": {
        "flatten_data": "0", 
        "func_name": "fuse_conv2d_8", 
        "num_inputs": "3", 
        "num_outputs": "1"
      }, 
      "inputs": [[216, 0, 0], [274, 0, 0], [275, 0, 0]]
    }, 
    {
      "op": "null", 
      "name": "_param_90", 
      "inputs": []
    }, 
    {
      "op": "tvm_op", 
      "name": "batch_norm14_add_eps", 
      "attrs": {
        "flatten_data": "1", 
        "func_name": "fuse___add_scalar___3", 
        "num_inputs": "1", 
        "num_outputs": "1"
      }, 
      "inputs": [[277, 0, 0]]
    }, 
    {
      "op": "tvm_op", 
      "name": "batch_norm14_sqrt", 
      "attrs": {
        "flatten_data": "1", 
        "func_name": "fuse_sqrt_3", 
        "num_inputs": "1", 
        "num_outputs": "1"
      }, 
      "inputs": [[278, 0, 0]]
    }, 
    {
      "op": "tvm_op", 
      "name": "batch_norm14_div", 
      "attrs": {
        "flatten_data": "1", 
        "func_name": "fuse___rdiv_scalar___3", 
        "num_inputs": "1", 
        "num_outputs": "1"
      }, 
      "inputs": [[279, 0, 0]]
    }, 
    {
      "op": "null", 
      "name": "_param_87", 
      "inputs": []
    }, 
    {
      "op": "tvm_op", 
      "name": "batch_norm14_gamma_mul_div", 
      "attrs": {
        "flatten_data": "1", 
        "func_name": "fuse_elemwise_mul_3", 
        "num_inputs": "2", 
        "num_outputs": "1"
      }, 
      "inputs": [[280, 0, 0], [281, 0, 0]]
    }, 
    {
      "op": "tvm_op", 
      "name": "batch_norm14_gamma_mul_div_expand", 
      "attrs": {
        "flatten_data": "0", 
        "func_name": "fuse_expand_dims_3", 
        "num_inputs": "1", 
        "num_outputs": "1"
      }, 
      "inputs": [[282, 0, 0]]
    }, 
    {
      "op": "tvm_op", 
      "name": "batch_norm14_a_mul_data", 
      "attrs": {
        "flatten_data": "0", 
        "func_name": "fuse_broadcast_mul_4", 
        "num_inputs": "2", 
        "num_outputs": "1"
      }, 
      "inputs": [[276, 0, 0], [283, 0, 0]]
    }, 
    {
      "op": "null", 
      "name": "_param_89", 
      "inputs": []
    }, 
    {
      "op": "tvm_op", 
      "name": "batch_norm14_neg_mean", 
      "attrs": {
        "flatten_data": "1", 
        "func_name": "fuse_negative_3", 
        "num_inputs": "1", 
        "num_outputs": "1"
      }, 
      "inputs": [[285, 0, 0]]
    }, 
    {
      "op": "tvm_op", 
      "name": "batch_norm14_neg_mean_mul_a", 
      "attrs": {
        "flatten_data": "1", 
        "func_name": "fuse_elemwise_mul_3", 
        "num_inputs": "2", 
        "num_outputs": "1"
      }, 
      "inputs": [[286, 0, 0], [282, 0, 0]]
    }, 
    {
      "op": "null", 
      "name": "_param_88", 
      "inputs": []
    }, 
    {
      "op": "tvm_op", 
      "name": "batch_norm14_add_beta", 
      "attrs": {
        "flatten_data": "1", 
        "func_name": "fuse_elemwise_add_4", 
        "num_inputs": "2", 
        "num_outputs": "1"
      }, 
      "inputs": [[287, 0, 0], [288, 0, 0]]
    }, 
    {
      "op": "tvm_op", 
      "name": "batch_norm14_add_beta_expand", 
      "attrs": {
        "flatten_data": "0", 
        "func_name": "fuse_expand_dims_3", 
        "num_inputs": "1", 
        "num_outputs": "1"
      }, 
      "inputs": [[289, 0, 0]]
    }, 
    {
      "op": "tvm_op", 
      "name": "batch_norm14_out", 
      "attrs": {
        "flatten_data": "0", 
        "func_name": "fuse_broadcast_add_4", 
        "num_inputs": "2", 
        "num_outputs": "1"
      }, 
      "inputs": [[284, 0, 0], [290, 0, 0]]
    }, 
    {
      "op": "tvm_op", 
      "name": "elemwise_add3", 
      "attrs": {
        "flatten_data": "1", 
        "func_name": "fuse_elemwise_add_5", 
        "num_inputs": "2", 
        "num_outputs": "1"
      }, 
      "inputs": [[273, 0, 0], [291, 0, 0]]
    }, 
    {
      "op": "tvm_op", 
      "name": "relu12", 
      "attrs": {
        "flatten_data": "1", 
        "func_name": "fuse_relu_4", 
        "num_inputs": "1", 
        "num_outputs": "1"
      }, 
      "inputs": [[292, 0, 0]]
    }, 
    {
      "op": "null", 
      "name": "_param_91", 
      "inputs": []
    }, 
    {
      "op": "null", 
      "name": "_param_92", 
      "inputs": []
    }, 
    {
      "op": "tvm_op", 
      "name": "conv2d15", 
      "attrs": {
        "flatten_data": "0", 
        "func_name": "fuse_conv2d_9", 
        "num_inputs": "3", 
        "num_outputs": "1"
      }, 
      "inputs": [[293, 0, 0], [294, 0, 0], [295, 0, 0]]
    }, 
    {
      "op": "null", 
      "name": "_param_96", 
      "inputs": []
    }, 
    {
      "op": "tvm_op", 
      "name": "batch_norm15_add_eps", 
      "attrs": {
        "flatten_data": "1", 
        "func_name": "fuse___add_scalar___2", 
        "num_inputs": "1", 
        "num_outputs": "1"
      }, 
      "inputs": [[297, 0, 0]]
    }, 
    {
      "op": "tvm_op", 
      "name": "batch_norm15_sqrt", 
      "attrs": {
        "flatten_data": "1", 
        "func_name": "fuse_sqrt_2", 
        "num_inputs": "1", 
        "num_outputs": "1"
      }, 
      "inputs": [[298, 0, 0]]
    }, 
    {
      "op": "tvm_op", 
      "name": "batch_norm15_div", 
      "attrs": {
        "flatten_data": "1", 
        "func_name": "fuse___rdiv_scalar___2", 
        "num_inputs": "1", 
        "num_outputs": "1"
      }, 
      "inputs": [[299, 0, 0]]
    }, 
    {
      "op": "null", 
      "name": "_param_93", 
      "inputs": []
    }, 
    {
      "op": "tvm_op", 
      "name": "batch_norm15_gamma_mul_div", 
      "attrs": {
        "flatten_data": "1", 
        "func_name": "fuse_elemwise_mul_2", 
        "num_inputs": "2", 
        "num_outputs": "1"
      }, 
      "inputs": [[300, 0, 0], [301, 0, 0]]
    }, 
    {
      "op": "tvm_op", 
      "name": "batch_norm15_gamma_mul_div_expand", 
      "attrs": {
        "flatten_data": "0", 
        "func_name": "fuse_expand_dims_2", 
        "num_inputs": "1", 
        "num_outputs": "1"
      }, 
      "inputs": [[302, 0, 0]]
    }, 
    {
      "op": "tvm_op", 
      "name": "batch_norm15_a_mul_data", 
      "attrs": {
        "flatten_data": "0", 
        "func_name": "fuse_broadcast_mul_3", 
        "num_inputs": "2", 
        "num_outputs": "1"
      }, 
      "inputs": [[296, 0, 0], [303, 0, 0]]
    }, 
    {
      "op": "null", 
      "name": "_param_95", 
      "inputs": []
    }, 
    {
      "op": "tvm_op", 
      "name": "batch_norm15_neg_mean", 
      "attrs": {
        "flatten_data": "1", 
        "func_name": "fuse_negative_2", 
        "num_inputs": "1", 
        "num_outputs": "1"
      }, 
      "inputs": [[305, 0, 0]]
    }, 
    {
      "op": "tvm_op", 
      "name": "batch_norm15_neg_mean_mul_a", 
      "attrs": {
        "flatten_data": "1", 
        "func_name": "fuse_elemwise_mul_2", 
        "num_inputs": "2", 
        "num_outputs": "1"
      }, 
      "inputs": [[306, 0, 0], [302, 0, 0]]
    }, 
    {
      "op": "null", 
      "name": "_param_94", 
      "inputs": []
    }, 
    {
      "op": "tvm_op", 
      "name": "batch_norm15_add_beta", 
      "attrs": {
        "flatten_data": "1", 
        "func_name": "fuse_elemwise_add_3", 
        "num_inputs": "2", 
        "num_outputs": "1"
      }, 
      "inputs": [[307, 0, 0], [308, 0, 0]]
    }, 
    {
      "op": "tvm_op", 
      "name": "batch_norm15_add_beta_expand", 
      "attrs": {
        "flatten_data": "0", 
        "func_name": "fuse_expand_dims_2", 
        "num_inputs": "1", 
        "num_outputs": "1"
      }, 
      "inputs": [[309, 0, 0]]
    }, 
    {
      "op": "tvm_op", 
      "name": "batch_norm15_out", 
      "attrs": {
        "flatten_data": "0", 
        "func_name": "fuse_broadcast_add_3", 
        "num_inputs": "2", 
        "num_outputs": "1"
      }, 
      "inputs": [[304, 0, 0], [310, 0, 0]]
    }, 
    {
      "op": "tvm_op", 
      "name": "relu13", 
      "attrs": {
        "flatten_data": "1", 
        "func_name": "fuse_relu_3", 
        "num_inputs": "1", 
        "num_outputs": "1"
      }, 
      "inputs": [[311, 0, 0]]
    }, 
    {
      "op": "tvm_op", 
      "name": "pad5", 
      "attrs": {
        "flatten_data": "0", 
        "func_name": "fuse_pad_2", 
        "num_inputs": "1", 
        "num_outputs": "1"
      }, 
      "inputs": [[312, 0, 0]]
    }, 
    {
      "op": "null", 
      "name": "_param_97", 
      "inputs": []
    }, 
    {
      "op": "null", 
      "name": "_param_98", 
      "inputs": []
    }, 
    {
      "op": "tvm_op", 
      "name": "conv2d16", 
      "attrs": {
        "flatten_data": "0", 
        "func_name": "fuse_conv2d_6", 
        "num_inputs": "3", 
        "num_outputs": "1"
      }, 
      "inputs": [[313, 0, 0], [314, 0, 0], [315, 0, 0]]
    }, 
    {
      "op": "null", 
      "name": "_param_102", 
      "inputs": []
    }, 
    {
      "op": "tvm_op", 
      "name": "batch_norm16_add_eps", 
      "attrs": {
        "flatten_data": "1", 
        "func_name": "fuse___add_scalar___2", 
        "num_inputs": "1", 
        "num_outputs": "1"
      }, 
      "inputs": [[317, 0, 0]]
    }, 
    {
      "op": "tvm_op", 
      "name": "batch_norm16_sqrt", 
      "attrs": {
        "flatten_data": "1", 
        "func_name": "fuse_sqrt_2", 
        "num_inputs": "1", 
        "num_outputs": "1"
      }, 
      "inputs": [[318, 0, 0]]
    }, 
    {
      "op": "tvm_op", 
      "name": "batch_norm16_div", 
      "attrs": {
        "flatten_data": "1", 
        "func_name": "fuse___rdiv_scalar___2", 
        "num_inputs": "1", 
        "num_outputs": "1"
      }, 
      "inputs": [[319, 0, 0]]
    }, 
    {
      "op": "null", 
      "name": "_param_99", 
      "inputs": []
    }, 
    {
      "op": "tvm_op", 
      "name": "batch_norm16_gamma_mul_div", 
      "attrs": {
        "flatten_data": "1", 
        "func_name": "fuse_elemwise_mul_2", 
        "num_inputs": "2", 
        "num_outputs": "1"
      }, 
      "inputs": [[320, 0, 0], [321, 0, 0]]
    }, 
    {
      "op": "tvm_op", 
      "name": "batch_norm16_gamma_mul_div_expand", 
      "attrs": {
        "flatten_data": "0", 
        "func_name": "fuse_expand_dims_2", 
        "num_inputs": "1", 
        "num_outputs": "1"
      }, 
      "inputs": [[322, 0, 0]]
    }, 
    {
      "op": "tvm_op", 
      "name": "batch_norm16_a_mul_data", 
      "attrs": {
        "flatten_data": "0", 
        "func_name": "fuse_broadcast_mul_3", 
        "num_inputs": "2", 
        "num_outputs": "1"
      }, 
      "inputs": [[316, 0, 0], [323, 0, 0]]
    }, 
    {
      "op": "null", 
      "name": "_param_101", 
      "inputs": []
    }, 
    {
      "op": "tvm_op", 
      "name": "batch_norm16_neg_mean", 
      "attrs": {
        "flatten_data": "1", 
        "func_name": "fuse_negative_2", 
        "num_inputs": "1", 
        "num_outputs": "1"
      }, 
      "inputs": [[325, 0, 0]]
    }, 
    {
      "op": "tvm_op", 
      "name": "batch_norm16_neg_mean_mul_a", 
      "attrs": {
        "flatten_data": "1", 
        "func_name": "fuse_elemwise_mul_2", 
        "num_inputs": "2", 
        "num_outputs": "1"
      }, 
      "inputs": [[326, 0, 0], [322, 0, 0]]
    }, 
    {
      "op": "null", 
      "name": "_param_100", 
      "inputs": []
    }, 
    {
      "op": "tvm_op", 
      "name": "batch_norm16_add_beta", 
      "attrs": {
        "flatten_data": "1", 
        "func_name": "fuse_elemwise_add_3", 
        "num_inputs": "2", 
        "num_outputs": "1"
      }, 
      "inputs": [[327, 0, 0], [328, 0, 0]]
    }, 
    {
      "op": "tvm_op", 
      "name": "batch_norm16_add_beta_expand", 
      "attrs": {
        "flatten_data": "0", 
        "func_name": "fuse_expand_dims_2", 
        "num_inputs": "1", 
        "num_outputs": "1"
      }, 
      "inputs": [[329, 0, 0]]
    }, 
    {
      "op": "tvm_op", 
      "name": "batch_norm16_out", 
      "attrs": {
        "flatten_data": "0", 
        "func_name": "fuse_broadcast_add_3", 
        "num_inputs": "2", 
        "num_outputs": "1"
      }, 
      "inputs": [[324, 0, 0], [330, 0, 0]]
    }, 
    {
      "op": "tvm_op", 
      "name": "relu14", 
      "attrs": {
        "flatten_data": "1", 
        "func_name": "fuse_relu_3", 
        "num_inputs": "1", 
        "num_outputs": "1"
      }, 
      "inputs": [[331, 0, 0]]
    }, 
    {
      "op": "null", 
      "name": "_param_103", 
      "inputs": []
    }, 
    {
      "op": "null", 
      "name": "_param_104", 
      "inputs": []
    }, 
    {
      "op": "tvm_op", 
      "name": "conv2d17", 
      "attrs": {
        "flatten_data": "0", 
        "func_name": "fuse_conv2d_7", 
        "num_inputs": "3", 
        "num_outputs": "1"
      }, 
      "inputs": [[332, 0, 0], [333, 0, 0], [334, 0, 0]]
    }, 
    {
      "op": "null", 
      "name": "_param_108", 
      "inputs": []
    }, 
    {
      "op": "tvm_op", 
      "name": "batch_norm17_add_eps", 
      "attrs": {
        "flatten_data": "1", 
        "func_name": "fuse___add_scalar___3", 
        "num_inputs": "1", 
        "num_outputs": "1"
      }, 
      "inputs": [[336, 0, 0]]
    }, 
    {
      "op": "tvm_op", 
      "name": "batch_norm17_sqrt", 
      "attrs": {
        "flatten_data": "1", 
        "func_name": "fuse_sqrt_3", 
        "num_inputs": "1", 
        "num_outputs": "1"
      }, 
      "inputs": [[337, 0, 0]]
    }, 
    {
      "op": "tvm_op", 
      "name": "batch_norm17_div", 
      "attrs": {
        "flatten_data": "1", 
        "func_name": "fuse___rdiv_scalar___3", 
        "num_inputs": "1", 
        "num_outputs": "1"
      }, 
      "inputs": [[338, 0, 0]]
    }, 
    {
      "op": "null", 
      "name": "_param_105", 
      "inputs": []
    }, 
    {
      "op": "tvm_op", 
      "name": "batch_norm17_gamma_mul_div", 
      "attrs": {
        "flatten_data": "1", 
        "func_name": "fuse_elemwise_mul_3", 
        "num_inputs": "2", 
        "num_outputs": "1"
      }, 
      "inputs": [[339, 0, 0], [340, 0, 0]]
    }, 
    {
      "op": "tvm_op", 
      "name": "batch_norm17_gamma_mul_div_expand", 
      "attrs": {
        "flatten_data": "0", 
        "func_name": "fuse_expand_dims_3", 
        "num_inputs": "1", 
        "num_outputs": "1"
      }, 
      "inputs": [[341, 0, 0]]
    }, 
    {
      "op": "tvm_op", 
      "name": "batch_norm17_a_mul_data", 
      "attrs": {
        "flatten_data": "0", 
        "func_name": "fuse_broadcast_mul_4", 
        "num_inputs": "2", 
        "num_outputs": "1"
      }, 
      "inputs": [[335, 0, 0], [342, 0, 0]]
    }, 
    {
      "op": "null", 
      "name": "_param_107", 
      "inputs": []
    }, 
    {
      "op": "tvm_op", 
      "name": "batch_norm17_neg_mean", 
      "attrs": {
        "flatten_data": "1", 
        "func_name": "fuse_negative_3", 
        "num_inputs": "1", 
        "num_outputs": "1"
      }, 
      "inputs": [[344, 0, 0]]
    }, 
    {
      "op": "tvm_op", 
      "name": "batch_norm17_neg_mean_mul_a", 
      "attrs": {
        "flatten_data": "1", 
        "func_name": "fuse_elemwise_mul_3", 
        "num_inputs": "2", 
        "num_outputs": "1"
      }, 
      "inputs": [[345, 0, 0], [341, 0, 0]]
    }, 
    {
      "op": "null", 
      "name": "_param_106", 
      "inputs": []
    }, 
    {
      "op": "tvm_op", 
      "name": "batch_norm17_add_beta", 
      "attrs": {
        "flatten_data": "1", 
        "func_name": "fuse_elemwise_add_4", 
        "num_inputs": "2", 
        "num_outputs": "1"
      }, 
      "inputs": [[346, 0, 0], [347, 0, 0]]
    }, 
    {
      "op": "tvm_op", 
      "name": "batch_norm17_add_beta_expand", 
      "attrs": {
        "flatten_data": "0", 
        "func_name": "fuse_expand_dims_3", 
        "num_inputs": "1", 
        "num_outputs": "1"
      }, 
      "inputs": [[348, 0, 0]]
    }, 
    {
      "op": "tvm_op", 
      "name": "batch_norm17_out", 
      "attrs": {
        "flatten_data": "0", 
        "func_name": "fuse_broadcast_add_4", 
        "num_inputs": "2", 
        "num_outputs": "1"
      }, 
      "inputs": [[343, 0, 0], [349, 0, 0]]
    }, 
    {
      "op": "tvm_op", 
      "name": "elemwise_add4", 
      "attrs": {
        "flatten_data": "1", 
        "func_name": "fuse_elemwise_add_5", 
        "num_inputs": "2", 
        "num_outputs": "1"
      }, 
      "inputs": [[350, 0, 0], [293, 0, 0]]
    }, 
    {
      "op": "tvm_op", 
      "name": "relu15", 
      "attrs": {
        "flatten_data": "1", 
        "func_name": "fuse_relu_4", 
        "num_inputs": "1", 
        "num_outputs": "1"
      }, 
      "inputs": [[351, 0, 0]]
    }, 
    {
      "op": "null", 
      "name": "_param_109", 
      "inputs": []
    }, 
    {
      "op": "null", 
      "name": "_param_110", 
      "inputs": []
    }, 
    {
      "op": "tvm_op", 
      "name": "conv2d18", 
      "attrs": {
        "flatten_data": "0", 
        "func_name": "fuse_conv2d_9", 
        "num_inputs": "3", 
        "num_outputs": "1"
      }, 
      "inputs": [[352, 0, 0], [353, 0, 0], [354, 0, 0]]
    }, 
    {
      "op": "null", 
      "name": "_param_114", 
      "inputs": []
    }, 
    {
      "op": "tvm_op", 
      "name": "batch_norm18_add_eps", 
      "attrs": {
        "flatten_data": "1", 
        "func_name": "fuse___add_scalar___2", 
        "num_inputs": "1", 
        "num_outputs": "1"
      }, 
      "inputs": [[356, 0, 0]]
    }, 
    {
      "op": "tvm_op", 
      "name": "batch_norm18_sqrt", 
      "attrs": {
        "flatten_data": "1", 
        "func_name": "fuse_sqrt_2", 
        "num_inputs": "1", 
        "num_outputs": "1"
      }, 
      "inputs": [[357, 0, 0]]
    }, 
    {
      "op": "tvm_op", 
      "name": "batch_norm18_div", 
      "attrs": {
        "flatten_data": "1", 
        "func_name": "fuse___rdiv_scalar___2", 
        "num_inputs": "1", 
        "num_outputs": "1"
      }, 
      "inputs": [[358, 0, 0]]
    }, 
    {
      "op": "null", 
      "name": "_param_111", 
      "inputs": []
    }, 
    {
      "op": "tvm_op", 
      "name": "batch_norm18_gamma_mul_div", 
      "attrs": {
        "flatten_data": "1", 
        "func_name": "fuse_elemwise_mul_2", 
        "num_inputs": "2", 
        "num_outputs": "1"
      }, 
      "inputs": [[359, 0, 0], [360, 0, 0]]
    }, 
    {
      "op": "tvm_op", 
      "name": "batch_norm18_gamma_mul_div_expand", 
      "attrs": {
        "flatten_data": "0", 
        "func_name": "fuse_expand_dims_2", 
        "num_inputs": "1", 
        "num_outputs": "1"
      }, 
      "inputs": [[361, 0, 0]]
    }, 
    {
      "op": "tvm_op", 
      "name": "batch_norm18_a_mul_data", 
      "attrs": {
        "flatten_data": "0", 
        "func_name": "fuse_broadcast_mul_3", 
        "num_inputs": "2", 
        "num_outputs": "1"
      }, 
      "inputs": [[355, 0, 0], [362, 0, 0]]
    }, 
    {
      "op": "null", 
      "name": "_param_113", 
      "inputs": []
    }, 
    {
      "op": "tvm_op", 
      "name": "batch_norm18_neg_mean", 
      "attrs": {
        "flatten_data": "1", 
        "func_name": "fuse_negative_2", 
        "num_inputs": "1", 
        "num_outputs": "1"
      }, 
      "inputs": [[364, 0, 0]]
    }, 
    {
      "op": "tvm_op", 
      "name": "batch_norm18_neg_mean_mul_a", 
      "attrs": {
        "flatten_data": "1", 
        "func_name": "fuse_elemwise_mul_2", 
        "num_inputs": "2", 
        "num_outputs": "1"
      }, 
      "inputs": [[365, 0, 0], [361, 0, 0]]
    }, 
    {
      "op": "null", 
      "name": "_param_112", 
      "inputs": []
    }, 
    {
      "op": "tvm_op", 
      "name": "batch_norm18_add_beta", 
      "attrs": {
        "flatten_data": "1", 
        "func_name": "fuse_elemwise_add_3", 
        "num_inputs": "2", 
        "num_outputs": "1"
      }, 
      "inputs": [[366, 0, 0], [367, 0, 0]]
    }, 
    {
      "op": "tvm_op", 
      "name": "batch_norm18_add_beta_expand", 
      "attrs": {
        "flatten_data": "0", 
        "func_name": "fuse_expand_dims_2", 
        "num_inputs": "1", 
        "num_outputs": "1"
      }, 
      "inputs": [[368, 0, 0]]
    }, 
    {
      "op": "tvm_op", 
      "name": "batch_norm18_out", 
      "attrs": {
        "flatten_data": "0", 
        "func_name": "fuse_broadcast_add_3", 
        "num_inputs": "2", 
        "num_outputs": "1"
      }, 
      "inputs": [[363, 0, 0], [369, 0, 0]]
    }, 
    {
      "op": "tvm_op", 
      "name": "relu16", 
      "attrs": {
        "flatten_data": "1", 
        "func_name": "fuse_relu_3", 
        "num_inputs": "1", 
        "num_outputs": "1"
      }, 
      "inputs": [[370, 0, 0]]
    }, 
    {
      "op": "tvm_op", 
      "name": "pad6", 
      "attrs": {
        "flatten_data": "0", 
        "func_name": "fuse_pad_2", 
        "num_inputs": "1", 
        "num_outputs": "1"
      }, 
      "inputs": [[371, 0, 0]]
    }, 
    {
      "op": "null", 
      "name": "_param_115", 
      "inputs": []
    }, 
    {
      "op": "null", 
      "name": "_param_116", 
      "inputs": []
    }, 
    {
      "op": "tvm_op", 
      "name": "conv2d19", 
      "attrs": {
        "flatten_data": "0", 
        "func_name": "fuse_conv2d_6", 
        "num_inputs": "3", 
        "num_outputs": "1"
      }, 
      "inputs": [[372, 0, 0], [373, 0, 0], [374, 0, 0]]
    }, 
    {
      "op": "null", 
      "name": "_param_120", 
      "inputs": []
    }, 
    {
      "op": "tvm_op", 
      "name": "batch_norm19_add_eps", 
      "attrs": {
        "flatten_data": "1", 
        "func_name": "fuse___add_scalar___2", 
        "num_inputs": "1", 
        "num_outputs": "1"
      }, 
      "inputs": [[376, 0, 0]]
    }, 
    {
      "op": "tvm_op", 
      "name": "batch_norm19_sqrt", 
      "attrs": {
        "flatten_data": "1", 
        "func_name": "fuse_sqrt_2", 
        "num_inputs": "1", 
        "num_outputs": "1"
      }, 
      "inputs": [[377, 0, 0]]
    }, 
    {
      "op": "tvm_op", 
      "name": "batch_norm19_div", 
      "attrs": {
        "flatten_data": "1", 
        "func_name": "fuse___rdiv_scalar___2", 
        "num_inputs": "1", 
        "num_outputs": "1"
      }, 
      "inputs": [[378, 0, 0]]
    }, 
    {
      "op": "null", 
      "name": "_param_117", 
      "inputs": []
    }, 
    {
      "op": "tvm_op", 
      "name": "batch_norm19_gamma_mul_div", 
      "attrs": {
        "flatten_data": "1", 
        "func_name": "fuse_elemwise_mul_2", 
        "num_inputs": "2", 
        "num_outputs": "1"
      }, 
      "inputs": [[379, 0, 0], [380, 0, 0]]
    }, 
    {
      "op": "tvm_op", 
      "name": "batch_norm19_gamma_mul_div_expand", 
      "attrs": {
        "flatten_data": "0", 
        "func_name": "fuse_expand_dims_2", 
        "num_inputs": "1", 
        "num_outputs": "1"
      }, 
      "inputs": [[381, 0, 0]]
    }, 
    {
      "op": "tvm_op", 
      "name": "batch_norm19_a_mul_data", 
      "attrs": {
        "flatten_data": "0", 
        "func_name": "fuse_broadcast_mul_3", 
        "num_inputs": "2", 
        "num_outputs": "1"
      }, 
      "inputs": [[375, 0, 0], [382, 0, 0]]
    }, 
    {
      "op": "null", 
      "name": "_param_119", 
      "inputs": []
    }, 
    {
      "op": "tvm_op", 
      "name": "batch_norm19_neg_mean", 
      "attrs": {
        "flatten_data": "1", 
        "func_name": "fuse_negative_2", 
        "num_inputs": "1", 
        "num_outputs": "1"
      }, 
      "inputs": [[384, 0, 0]]
    }, 
    {
      "op": "tvm_op", 
      "name": "batch_norm19_neg_mean_mul_a", 
      "attrs": {
        "flatten_data": "1", 
        "func_name": "fuse_elemwise_mul_2", 
        "num_inputs": "2", 
        "num_outputs": "1"
      }, 
      "inputs": [[385, 0, 0], [381, 0, 0]]
    }, 
    {
      "op": "null", 
      "name": "_param_118", 
      "inputs": []
    }, 
    {
      "op": "tvm_op", 
      "name": "batch_norm19_add_beta", 
      "attrs": {
        "flatten_data": "1", 
        "func_name": "fuse_elemwise_add_3", 
        "num_inputs": "2", 
        "num_outputs": "1"
      }, 
      "inputs": [[386, 0, 0], [387, 0, 0]]
    }, 
    {
      "op": "tvm_op", 
      "name": "batch_norm19_add_beta_expand", 
      "attrs": {
        "flatten_data": "0", 
        "func_name": "fuse_expand_dims_2", 
        "num_inputs": "1", 
        "num_outputs": "1"
      }, 
      "inputs": [[388, 0, 0]]
    }, 
    {
      "op": "tvm_op", 
      "name": "batch_norm19_out", 
      "attrs": {
        "flatten_data": "0", 
        "func_name": "fuse_broadcast_add_3", 
        "num_inputs": "2", 
        "num_outputs": "1"
      }, 
      "inputs": [[383, 0, 0], [389, 0, 0]]
    }, 
    {
      "op": "tvm_op", 
      "name": "relu17", 
      "attrs": {
        "flatten_data": "1", 
        "func_name": "fuse_relu_3", 
        "num_inputs": "1", 
        "num_outputs": "1"
      }, 
      "inputs": [[390, 0, 0]]
    }, 
    {
      "op": "null", 
      "name": "_param_121", 
      "inputs": []
    }, 
    {
      "op": "null", 
      "name": "_param_122", 
      "inputs": []
    }, 
    {
      "op": "tvm_op", 
      "name": "conv2d20", 
      "attrs": {
        "flatten_data": "0", 
        "func_name": "fuse_conv2d_7", 
        "num_inputs": "3", 
        "num_outputs": "1"
      }, 
      "inputs": [[391, 0, 0], [392, 0, 0], [393, 0, 0]]
    }, 
    {
      "op": "null", 
      "name": "_param_126", 
      "inputs": []
    }, 
    {
      "op": "tvm_op", 
      "name": "batch_norm20_add_eps", 
      "attrs": {
        "flatten_data": "1", 
        "func_name": "fuse___add_scalar___3", 
        "num_inputs": "1", 
        "num_outputs": "1"
      }, 
      "inputs": [[395, 0, 0]]
    }, 
    {
      "op": "tvm_op", 
      "name": "batch_norm20_sqrt", 
      "attrs": {
        "flatten_data": "1", 
        "func_name": "fuse_sqrt_3", 
        "num_inputs": "1", 
        "num_outputs": "1"
      }, 
      "inputs": [[396, 0, 0]]
    }, 
    {
      "op": "tvm_op", 
      "name": "batch_norm20_div", 
      "attrs": {
        "flatten_data": "1", 
        "func_name": "fuse___rdiv_scalar___3", 
        "num_inputs": "1", 
        "num_outputs": "1"
      }, 
      "inputs": [[397, 0, 0]]
    }, 
    {
      "op": "null", 
      "name": "_param_123", 
      "inputs": []
    }, 
    {
      "op": "tvm_op", 
      "name": "batch_norm20_gamma_mul_div", 
      "attrs": {
        "flatten_data": "1", 
        "func_name": "fuse_elemwise_mul_3", 
        "num_inputs": "2", 
        "num_outputs": "1"
      }, 
      "inputs": [[398, 0, 0], [399, 0, 0]]
    }, 
    {
      "op": "tvm_op", 
      "name": "batch_norm20_gamma_mul_div_expand", 
      "attrs": {
        "flatten_data": "0", 
        "func_name": "fuse_expand_dims_3", 
        "num_inputs": "1", 
        "num_outputs": "1"
      }, 
      "inputs": [[400, 0, 0]]
    }, 
    {
      "op": "tvm_op", 
      "name": "batch_norm20_a_mul_data", 
      "attrs": {
        "flatten_data": "0", 
        "func_name": "fuse_broadcast_mul_4", 
        "num_inputs": "2", 
        "num_outputs": "1"
      }, 
      "inputs": [[394, 0, 0], [401, 0, 0]]
    }, 
    {
      "op": "null", 
      "name": "_param_125", 
      "inputs": []
    }, 
    {
      "op": "tvm_op", 
      "name": "batch_norm20_neg_mean", 
      "attrs": {
        "flatten_data": "1", 
        "func_name": "fuse_negative_3", 
        "num_inputs": "1", 
        "num_outputs": "1"
      }, 
      "inputs": [[403, 0, 0]]
    }, 
    {
      "op": "tvm_op", 
      "name": "batch_norm20_neg_mean_mul_a", 
      "attrs": {
        "flatten_data": "1", 
        "func_name": "fuse_elemwise_mul_3", 
        "num_inputs": "2", 
        "num_outputs": "1"
      }, 
      "inputs": [[404, 0, 0], [400, 0, 0]]
    }, 
    {
      "op": "null", 
      "name": "_param_124", 
      "inputs": []
    }, 
    {
      "op": "tvm_op", 
      "name": "batch_norm20_add_beta", 
      "attrs": {
        "flatten_data": "1", 
        "func_name": "fuse_elemwise_add_4", 
        "num_inputs": "2", 
        "num_outputs": "1"
      }, 
      "inputs": [[405, 0, 0], [406, 0, 0]]
    }, 
    {
      "op": "tvm_op", 
      "name": "batch_norm20_add_beta_expand", 
      "attrs": {
        "flatten_data": "0", 
        "func_name": "fuse_expand_dims_3", 
        "num_inputs": "1", 
        "num_outputs": "1"
      }, 
      "inputs": [[407, 0, 0]]
    }, 
    {
      "op": "tvm_op", 
      "name": "batch_norm20_out", 
      "attrs": {
        "flatten_data": "0", 
        "func_name": "fuse_broadcast_add_4", 
        "num_inputs": "2", 
        "num_outputs": "1"
      }, 
      "inputs": [[402, 0, 0], [408, 0, 0]]
    }, 
    {
      "op": "tvm_op", 
      "name": "elemwise_add5", 
      "attrs": {
        "flatten_data": "1", 
        "func_name": "fuse_elemwise_add_5", 
        "num_inputs": "2", 
        "num_outputs": "1"
      }, 
      "inputs": [[409, 0, 0], [352, 0, 0]]
    }, 
    {
      "op": "tvm_op", 
      "name": "relu18", 
      "attrs": {
        "flatten_data": "1", 
        "func_name": "fuse_relu_4", 
        "num_inputs": "1", 
        "num_outputs": "1"
      }, 
      "inputs": [[410, 0, 0]]
    }, 
    {
      "op": "null", 
      "name": "_param_127", 
      "inputs": []
    }, 
    {
      "op": "null", 
      "name": "_param_128", 
      "inputs": []
    }, 
    {
      "op": "tvm_op", 
      "name": "conv2d21", 
      "attrs": {
        "flatten_data": "0", 
        "func_name": "fuse_conv2d_9", 
        "num_inputs": "3", 
        "num_outputs": "1"
      }, 
      "inputs": [[411, 0, 0], [412, 0, 0], [413, 0, 0]]
    }, 
    {
      "op": "null", 
      "name": "_param_132", 
      "inputs": []
    }, 
    {
      "op": "tvm_op", 
      "name": "batch_norm21_add_eps", 
      "attrs": {
        "flatten_data": "1", 
        "func_name": "fuse___add_scalar___2", 
        "num_inputs": "1", 
        "num_outputs": "1"
      }, 
      "inputs": [[415, 0, 0]]
    }, 
    {
      "op": "tvm_op", 
      "name": "batch_norm21_sqrt", 
      "attrs": {
        "flatten_data": "1", 
        "func_name": "fuse_sqrt_2", 
        "num_inputs": "1", 
        "num_outputs": "1"
      }, 
      "inputs": [[416, 0, 0]]
    }, 
    {
      "op": "tvm_op", 
      "name": "batch_norm21_div", 
      "attrs": {
        "flatten_data": "1", 
        "func_name": "fuse___rdiv_scalar___2", 
        "num_inputs": "1", 
        "num_outputs": "1"
      }, 
      "inputs": [[417, 0, 0]]
    }, 
    {
      "op": "null", 
      "name": "_param_129", 
      "inputs": []
    }, 
    {
      "op": "tvm_op", 
      "name": "batch_norm21_gamma_mul_div", 
      "attrs": {
        "flatten_data": "1", 
        "func_name": "fuse_elemwise_mul_2", 
        "num_inputs": "2", 
        "num_outputs": "1"
      }, 
      "inputs": [[418, 0, 0], [419, 0, 0]]
    }, 
    {
      "op": "tvm_op", 
      "name": "batch_norm21_gamma_mul_div_expand", 
      "attrs": {
        "flatten_data": "0", 
        "func_name": "fuse_expand_dims_2", 
        "num_inputs": "1", 
        "num_outputs": "1"
      }, 
      "inputs": [[420, 0, 0]]
    }, 
    {
      "op": "tvm_op", 
      "name": "batch_norm21_a_mul_data", 
      "attrs": {
        "flatten_data": "0", 
        "func_name": "fuse_broadcast_mul_3", 
        "num_inputs": "2", 
        "num_outputs": "1"
      }, 
      "inputs": [[414, 0, 0], [421, 0, 0]]
    }, 
    {
      "op": "null", 
      "name": "_param_131", 
      "inputs": []
    }, 
    {
      "op": "tvm_op", 
      "name": "batch_norm21_neg_mean", 
      "attrs": {
        "flatten_data": "1", 
        "func_name": "fuse_negative_2", 
        "num_inputs": "1", 
        "num_outputs": "1"
      }, 
      "inputs": [[423, 0, 0]]
    }, 
    {
      "op": "tvm_op", 
      "name": "batch_norm21_neg_mean_mul_a", 
      "attrs": {
        "flatten_data": "1", 
        "func_name": "fuse_elemwise_mul_2", 
        "num_inputs": "2", 
        "num_outputs": "1"
      }, 
      "inputs": [[424, 0, 0], [420, 0, 0]]
    }, 
    {
      "op": "null", 
      "name": "_param_130", 
      "inputs": []
    }, 
    {
      "op": "tvm_op", 
      "name": "batch_norm21_add_beta", 
      "attrs": {
        "flatten_data": "1", 
        "func_name": "fuse_elemwise_add_3", 
        "num_inputs": "2", 
        "num_outputs": "1"
      }, 
      "inputs": [[425, 0, 0], [426, 0, 0]]
    }, 
    {
      "op": "tvm_op", 
      "name": "batch_norm21_add_beta_expand", 
      "attrs": {
        "flatten_data": "0", 
        "func_name": "fuse_expand_dims_2", 
        "num_inputs": "1", 
        "num_outputs": "1"
      }, 
      "inputs": [[427, 0, 0]]
    }, 
    {
      "op": "tvm_op", 
      "name": "batch_norm21_out", 
      "attrs": {
        "flatten_data": "0", 
        "func_name": "fuse_broadcast_add_3", 
        "num_inputs": "2", 
        "num_outputs": "1"
      }, 
      "inputs": [[422, 0, 0], [428, 0, 0]]
    }, 
    {
      "op": "tvm_op", 
      "name": "relu19", 
      "attrs": {
        "flatten_data": "1", 
        "func_name": "fuse_relu_3", 
        "num_inputs": "1", 
        "num_outputs": "1"
      }, 
      "inputs": [[429, 0, 0]]
    }, 
    {
      "op": "tvm_op", 
      "name": "pad7", 
      "attrs": {
        "flatten_data": "0", 
        "func_name": "fuse_pad_2", 
        "num_inputs": "1", 
        "num_outputs": "1"
      }, 
      "inputs": [[430, 0, 0]]
    }, 
    {
      "op": "null", 
      "name": "_param_133", 
      "inputs": []
    }, 
    {
      "op": "null", 
      "name": "_param_134", 
      "inputs": []
    }, 
    {
      "op": "tvm_op", 
      "name": "conv2d22", 
      "attrs": {
        "flatten_data": "0", 
        "func_name": "fuse_conv2d_6", 
        "num_inputs": "3", 
        "num_outputs": "1"
      }, 
      "inputs": [[431, 0, 0], [432, 0, 0], [433, 0, 0]]
    }, 
    {
      "op": "null", 
      "name": "_param_138", 
      "inputs": []
    }, 
    {
      "op": "tvm_op", 
      "name": "batch_norm22_add_eps", 
      "attrs": {
        "flatten_data": "1", 
        "func_name": "fuse___add_scalar___2", 
        "num_inputs": "1", 
        "num_outputs": "1"
      }, 
      "inputs": [[435, 0, 0]]
    }, 
    {
      "op": "tvm_op", 
      "name": "batch_norm22_sqrt", 
      "attrs": {
        "flatten_data": "1", 
        "func_name": "fuse_sqrt_2", 
        "num_inputs": "1", 
        "num_outputs": "1"
      }, 
      "inputs": [[436, 0, 0]]
    }, 
    {
      "op": "tvm_op", 
      "name": "batch_norm22_div", 
      "attrs": {
        "flatten_data": "1", 
        "func_name": "fuse___rdiv_scalar___2", 
        "num_inputs": "1", 
        "num_outputs": "1"
      }, 
      "inputs": [[437, 0, 0]]
    }, 
    {
      "op": "null", 
      "name": "_param_135", 
      "inputs": []
    }, 
    {
      "op": "tvm_op", 
      "name": "batch_norm22_gamma_mul_div", 
      "attrs": {
        "flatten_data": "1", 
        "func_name": "fuse_elemwise_mul_2", 
        "num_inputs": "2", 
        "num_outputs": "1"
      }, 
      "inputs": [[438, 0, 0], [439, 0, 0]]
    }, 
    {
      "op": "tvm_op", 
      "name": "batch_norm22_gamma_mul_div_expand", 
      "attrs": {
        "flatten_data": "0", 
        "func_name": "fuse_expand_dims_2", 
        "num_inputs": "1", 
        "num_outputs": "1"
      }, 
      "inputs": [[440, 0, 0]]
    }, 
    {
      "op": "tvm_op", 
      "name": "batch_norm22_a_mul_data", 
      "attrs": {
        "flatten_data": "0", 
        "func_name": "fuse_broadcast_mul_3", 
        "num_inputs": "2", 
        "num_outputs": "1"
      }, 
      "inputs": [[434, 0, 0], [441, 0, 0]]
    }, 
    {
      "op": "null", 
      "name": "_param_137", 
      "inputs": []
    }, 
    {
      "op": "tvm_op", 
      "name": "batch_norm22_neg_mean", 
      "attrs": {
        "flatten_data": "1", 
        "func_name": "fuse_negative_2", 
        "num_inputs": "1", 
        "num_outputs": "1"
      }, 
      "inputs": [[443, 0, 0]]
    }, 
    {
      "op": "tvm_op", 
      "name": "batch_norm22_neg_mean_mul_a", 
      "attrs": {
        "flatten_data": "1", 
        "func_name": "fuse_elemwise_mul_2", 
        "num_inputs": "2", 
        "num_outputs": "1"
      }, 
      "inputs": [[444, 0, 0], [440, 0, 0]]
    }, 
    {
      "op": "null", 
      "name": "_param_136", 
      "inputs": []
    }, 
    {
      "op": "tvm_op", 
      "name": "batch_norm22_add_beta", 
      "attrs": {
        "flatten_data": "1", 
        "func_name": "fuse_elemwise_add_3", 
        "num_inputs": "2", 
        "num_outputs": "1"
      }, 
      "inputs": [[445, 0, 0], [446, 0, 0]]
    }, 
    {
      "op": "tvm_op", 
      "name": "batch_norm22_add_beta_expand", 
      "attrs": {
        "flatten_data": "0", 
        "func_name": "fuse_expand_dims_2", 
        "num_inputs": "1", 
        "num_outputs": "1"
      }, 
      "inputs": [[447, 0, 0]]
    }, 
    {
      "op": "tvm_op", 
      "name": "batch_norm22_out", 
      "attrs": {
        "flatten_data": "0", 
        "func_name": "fuse_broadcast_add_3", 
        "num_inputs": "2", 
        "num_outputs": "1"
      }, 
      "inputs": [[442, 0, 0], [448, 0, 0]]
    }, 
    {
      "op": "tvm_op", 
      "name": "relu20", 
      "attrs": {
        "flatten_data": "1", 
        "func_name": "fuse_relu_3", 
        "num_inputs": "1", 
        "num_outputs": "1"
      }, 
      "inputs": [[449, 0, 0]]
    }, 
    {
      "op": "null", 
      "name": "_param_139", 
      "inputs": []
    }, 
    {
      "op": "null", 
      "name": "_param_140", 
      "inputs": []
    }, 
    {
      "op": "tvm_op", 
      "name": "conv2d23", 
      "attrs": {
        "flatten_data": "0", 
        "func_name": "fuse_conv2d_7", 
        "num_inputs": "3", 
        "num_outputs": "1"
      }, 
      "inputs": [[450, 0, 0], [451, 0, 0], [452, 0, 0]]
    }, 
    {
      "op": "null", 
      "name": "_param_144", 
      "inputs": []
    }, 
    {
      "op": "tvm_op", 
      "name": "batch_norm23_add_eps", 
      "attrs": {
        "flatten_data": "1", 
        "func_name": "fuse___add_scalar___3", 
        "num_inputs": "1", 
        "num_outputs": "1"
      }, 
      "inputs": [[454, 0, 0]]
    }, 
    {
      "op": "tvm_op", 
      "name": "batch_norm23_sqrt", 
      "attrs": {
        "flatten_data": "1", 
        "func_name": "fuse_sqrt_3", 
        "num_inputs": "1", 
        "num_outputs": "1"
      }, 
      "inputs": [[455, 0, 0]]
    }, 
    {
      "op": "tvm_op", 
      "name": "batch_norm23_div", 
      "attrs": {
        "flatten_data": "1", 
        "func_name": "fuse___rdiv_scalar___3", 
        "num_inputs": "1", 
        "num_outputs": "1"
      }, 
      "inputs": [[456, 0, 0]]
    }, 
    {
      "op": "null", 
      "name": "_param_141", 
      "inputs": []
    }, 
    {
      "op": "tvm_op", 
      "name": "batch_norm23_gamma_mul_div", 
      "attrs": {
        "flatten_data": "1", 
        "func_name": "fuse_elemwise_mul_3", 
        "num_inputs": "2", 
        "num_outputs": "1"
      }, 
      "inputs": [[457, 0, 0], [458, 0, 0]]
    }, 
    {
      "op": "tvm_op", 
      "name": "batch_norm23_gamma_mul_div_expand", 
      "attrs": {
        "flatten_data": "0", 
        "func_name": "fuse_expand_dims_3", 
        "num_inputs": "1", 
        "num_outputs": "1"
      }, 
      "inputs": [[459, 0, 0]]
    }, 
    {
      "op": "tvm_op", 
      "name": "batch_norm23_a_mul_data", 
      "attrs": {
        "flatten_data": "0", 
        "func_name": "fuse_broadcast_mul_4", 
        "num_inputs": "2", 
        "num_outputs": "1"
      }, 
      "inputs": [[453, 0, 0], [460, 0, 0]]
    }, 
    {
      "op": "null", 
      "name": "_param_143", 
      "inputs": []
    }, 
    {
      "op": "tvm_op", 
      "name": "batch_norm23_neg_mean", 
      "attrs": {
        "flatten_data": "1", 
        "func_name": "fuse_negative_3", 
        "num_inputs": "1", 
        "num_outputs": "1"
      }, 
      "inputs": [[462, 0, 0]]
    }, 
    {
      "op": "tvm_op", 
      "name": "batch_norm23_neg_mean_mul_a", 
      "attrs": {
        "flatten_data": "1", 
        "func_name": "fuse_elemwise_mul_3", 
        "num_inputs": "2", 
        "num_outputs": "1"
      }, 
      "inputs": [[463, 0, 0], [459, 0, 0]]
    }, 
    {
      "op": "null", 
      "name": "_param_142", 
      "inputs": []
    }, 
    {
      "op": "tvm_op", 
      "name": "batch_norm23_add_beta", 
      "attrs": {
        "flatten_data": "1", 
        "func_name": "fuse_elemwise_add_4", 
        "num_inputs": "2", 
        "num_outputs": "1"
      }, 
      "inputs": [[464, 0, 0], [465, 0, 0]]
    }, 
    {
      "op": "tvm_op", 
      "name": "batch_norm23_add_beta_expand", 
      "attrs": {
        "flatten_data": "0", 
        "func_name": "fuse_expand_dims_3", 
        "num_inputs": "1", 
        "num_outputs": "1"
      }, 
      "inputs": [[466, 0, 0]]
    }, 
    {
      "op": "tvm_op", 
      "name": "batch_norm23_out", 
      "attrs": {
        "flatten_data": "0", 
        "func_name": "fuse_broadcast_add_4", 
        "num_inputs": "2", 
        "num_outputs": "1"
      }, 
      "inputs": [[461, 0, 0], [467, 0, 0]]
    }, 
    {
      "op": "tvm_op", 
      "name": "elemwise_add6", 
      "attrs": {
        "flatten_data": "1", 
        "func_name": "fuse_elemwise_add_5", 
        "num_inputs": "2", 
        "num_outputs": "1"
      }, 
      "inputs": [[468, 0, 0], [411, 0, 0]]
    }, 
    {
      "op": "tvm_op", 
      "name": "relu21", 
      "attrs": {
        "flatten_data": "1", 
        "func_name": "fuse_relu_4", 
        "num_inputs": "1", 
        "num_outputs": "1"
      }, 
      "inputs": [[469, 0, 0]]
    }, 
    {
      "op": "null", 
      "name": "_param_145", 
      "inputs": []
    }, 
    {
      "op": "null", 
      "name": "_param_146", 
      "inputs": []
    }, 
    {
      "op": "tvm_op", 
      "name": "conv2d24", 
      "attrs": {
        "flatten_data": "0", 
        "func_name": "fuse_conv2d_10", 
        "num_inputs": "3", 
        "num_outputs": "1"
      }, 
      "inputs": [[470, 0, 0], [471, 0, 0], [472, 0, 0]]
    }, 
    {
      "op": "null", 
      "name": "_param_150", 
      "inputs": []
    }, 
    {
      "op": "tvm_op", 
      "name": "batch_norm24_add_eps", 
      "attrs": {
        "flatten_data": "1", 
        "func_name": "fuse___add_scalar___1", 
        "num_inputs": "1", 
        "num_outputs": "1"
      }, 
      "inputs": [[474, 0, 0]]
    }, 
    {
      "op": "tvm_op", 
      "name": "batch_norm24_sqrt", 
      "attrs": {
        "flatten_data": "1", 
        "func_name": "fuse_sqrt_1", 
        "num_inputs": "1", 
        "num_outputs": "1"
      }, 
      "inputs": [[475, 0, 0]]
    }, 
    {
      "op": "tvm_op", 
      "name": "batch_norm24_div", 
      "attrs": {
        "flatten_data": "1", 
        "func_name": "fuse___rdiv_scalar___1", 
        "num_inputs": "1", 
        "num_outputs": "1"
      }, 
      "inputs": [[476, 0, 0]]
    }, 
    {
      "op": "null", 
      "name": "_param_147", 
      "inputs": []
    }, 
    {
      "op": "tvm_op", 
      "name": "batch_norm24_gamma_mul_div", 
      "attrs": {
        "flatten_data": "1", 
        "func_name": "fuse_elemwise_mul_1", 
        "num_inputs": "2", 
        "num_outputs": "1"
      }, 
      "inputs": [[477, 0, 0], [478, 0, 0]]
    }, 
    {
      "op": "tvm_op", 
      "name": "batch_norm24_gamma_mul_div_expand", 
      "attrs": {
        "flatten_data": "0", 
        "func_name": "fuse_expand_dims_1", 
        "num_inputs": "1", 
        "num_outputs": "1"
      }, 
      "inputs": [[479, 0, 0]]
    }, 
    {
      "op": "tvm_op", 
      "name": "batch_norm24_a_mul_data", 
      "attrs": {
        "flatten_data": "0", 
        "func_name": "fuse_broadcast_mul_5", 
        "num_inputs": "2", 
        "num_outputs": "1"
      }, 
      "inputs": [[473, 0, 0], [480, 0, 0]]
    }, 
    {
      "op": "null", 
      "name": "_param_149", 
      "inputs": []
    }, 
    {
      "op": "tvm_op", 
      "name": "batch_norm24_neg_mean", 
      "attrs": {
        "flatten_data": "1", 
        "func_name": "fuse_negative_1", 
        "num_inputs": "1", 
        "num_outputs": "1"
      }, 
      "inputs": [[482, 0, 0]]
    }, 
    {
      "op": "tvm_op", 
      "name": "batch_norm24_neg_mean_mul_a", 
      "attrs": {
        "flatten_data": "1", 
        "func_name": "fuse_elemwise_mul_1", 
        "num_inputs": "2", 
        "num_outputs": "1"
      }, 
      "inputs": [[483, 0, 0], [479, 0, 0]]
    }, 
    {
      "op": "null", 
      "name": "_param_148", 
      "inputs": []
    }, 
    {
      "op": "tvm_op", 
      "name": "batch_norm24_add_beta", 
      "attrs": {
        "flatten_data": "1", 
        "func_name": "fuse_elemwise_add_1", 
        "num_inputs": "2", 
        "num_outputs": "1"
      }, 
      "inputs": [[484, 0, 0], [485, 0, 0]]
    }, 
    {
      "op": "tvm_op", 
      "name": "batch_norm24_add_beta_expand", 
      "attrs": {
        "flatten_data": "0", 
        "func_name": "fuse_expand_dims_1", 
        "num_inputs": "1", 
        "num_outputs": "1"
      }, 
      "inputs": [[486, 0, 0]]
    }, 
    {
      "op": "tvm_op", 
      "name": "batch_norm24_out", 
      "attrs": {
        "flatten_data": "0", 
        "func_name": "fuse_broadcast_add_5", 
        "num_inputs": "2", 
        "num_outputs": "1"
      }, 
      "inputs": [[481, 0, 0], [487, 0, 0]]
    }, 
    {
      "op": "tvm_op", 
      "name": "relu22", 
      "attrs": {
        "flatten_data": "1", 
        "func_name": "fuse_relu_5", 
        "num_inputs": "1", 
        "num_outputs": "1"
      }, 
      "inputs": [[488, 0, 0]]
    }, 
    {
      "op": "tvm_op", 
      "name": "pad8", 
      "attrs": {
        "flatten_data": "0", 
        "func_name": "fuse_pad_3", 
        "num_inputs": "1", 
        "num_outputs": "1"
      }, 
      "inputs": [[489, 0, 0]]
    }, 
    {
      "op": "null", 
      "name": "_param_151", 
      "inputs": []
    }, 
    {
      "op": "null", 
      "name": "_param_152", 
      "inputs": []
    }, 
    {
      "op": "tvm_op", 
      "name": "conv2d25", 
      "attrs": {
        "flatten_data": "0", 
        "func_name": "fuse_conv2d_11", 
        "num_inputs": "3", 
        "num_outputs": "1"
      }, 
      "inputs": [[490, 0, 0], [491, 0, 0], [492, 0, 0]]
    }, 
    {
      "op": "null", 
      "name": "_param_156", 
      "inputs": []
    }, 
    {
      "op": "tvm_op", 
      "name": "batch_norm25_add_eps", 
      "attrs": {
        "flatten_data": "1", 
        "func_name": "fuse___add_scalar___1", 
        "num_inputs": "1", 
        "num_outputs": "1"
      }, 
      "inputs": [[494, 0, 0]]
    }, 
    {
      "op": "tvm_op", 
      "name": "batch_norm25_sqrt", 
      "attrs": {
        "flatten_data": "1", 
        "func_name": "fuse_sqrt_1", 
        "num_inputs": "1", 
        "num_outputs": "1"
      }, 
      "inputs": [[495, 0, 0]]
    }, 
    {
      "op": "tvm_op", 
      "name": "batch_norm25_div", 
      "attrs": {
        "flatten_data": "1", 
        "func_name": "fuse___rdiv_scalar___1", 
        "num_inputs": "1", 
        "num_outputs": "1"
      }, 
      "inputs": [[496, 0, 0]]
    }, 
    {
      "op": "null", 
      "name": "_param_153", 
      "inputs": []
    }, 
    {
      "op": "tvm_op", 
      "name": "batch_norm25_gamma_mul_div", 
      "attrs": {
        "flatten_data": "1", 
        "func_name": "fuse_elemwise_mul_1", 
        "num_inputs": "2", 
        "num_outputs": "1"
      }, 
      "inputs": [[497, 0, 0], [498, 0, 0]]
    }, 
    {
      "op": "tvm_op", 
      "name": "batch_norm25_gamma_mul_div_expand", 
      "attrs": {
        "flatten_data": "0", 
        "func_name": "fuse_expand_dims_1", 
        "num_inputs": "1", 
        "num_outputs": "1"
      }, 
      "inputs": [[499, 0, 0]]
    }, 
    {
      "op": "tvm_op", 
      "name": "batch_norm25_a_mul_data", 
      "attrs": {
        "flatten_data": "0", 
        "func_name": "fuse_broadcast_mul_5", 
        "num_inputs": "2", 
        "num_outputs": "1"
      }, 
      "inputs": [[493, 0, 0], [500, 0, 0]]
    }, 
    {
      "op": "null", 
      "name": "_param_155", 
      "inputs": []
    }, 
    {
      "op": "tvm_op", 
      "name": "batch_norm25_neg_mean", 
      "attrs": {
        "flatten_data": "1", 
        "func_name": "fuse_negative_1", 
        "num_inputs": "1", 
        "num_outputs": "1"
      }, 
      "inputs": [[502, 0, 0]]
    }, 
    {
      "op": "tvm_op", 
      "name": "batch_norm25_neg_mean_mul_a", 
      "attrs": {
        "flatten_data": "1", 
        "func_name": "fuse_elemwise_mul_1", 
        "num_inputs": "2", 
        "num_outputs": "1"
      }, 
      "inputs": [[503, 0, 0], [499, 0, 0]]
    }, 
    {
      "op": "null", 
      "name": "_param_154", 
      "inputs": []
    }, 
    {
      "op": "tvm_op", 
      "name": "batch_norm25_add_beta", 
      "attrs": {
        "flatten_data": "1", 
        "func_name": "fuse_elemwise_add_1", 
        "num_inputs": "2", 
        "num_outputs": "1"
      }, 
      "inputs": [[504, 0, 0], [505, 0, 0]]
    }, 
    {
      "op": "tvm_op", 
      "name": "batch_norm25_add_beta_expand", 
      "attrs": {
        "flatten_data": "0", 
        "func_name": "fuse_expand_dims_1", 
        "num_inputs": "1", 
        "num_outputs": "1"
      }, 
      "inputs": [[506, 0, 0]]
    }, 
    {
      "op": "tvm_op", 
      "name": "batch_norm25_out", 
      "attrs": {
        "flatten_data": "0", 
        "func_name": "fuse_broadcast_add_5", 
        "num_inputs": "2", 
        "num_outputs": "1"
      }, 
      "inputs": [[501, 0, 0], [507, 0, 0]]
    }, 
    {
      "op": "tvm_op", 
      "name": "relu23", 
      "attrs": {
        "flatten_data": "1", 
        "func_name": "fuse_relu_5", 
        "num_inputs": "1", 
        "num_outputs": "1"
      }, 
      "inputs": [[508, 0, 0]]
    }, 
    {
      "op": "null", 
      "name": "_param_157", 
      "inputs": []
    }, 
    {
      "op": "null", 
      "name": "_param_158", 
      "inputs": []
    }, 
    {
      "op": "tvm_op", 
      "name": "conv2d26", 
      "attrs": {
        "flatten_data": "0", 
        "func_name": "fuse_conv2d_12", 
        "num_inputs": "3", 
        "num_outputs": "1"
      }, 
      "inputs": [[509, 0, 0], [510, 0, 0], [511, 0, 0]]
    }, 
    {
      "op": "null", 
      "name": "_param_164", 
      "inputs": []
    }, 
    {
      "op": "tvm_op", 
      "name": "batch_norm26_add_eps", 
      "attrs": {
        "flatten_data": "1", 
        "func_name": "fuse___add_scalar___4", 
        "num_inputs": "1", 
        "num_outputs": "1"
      }, 
      "inputs": [[513, 0, 0]]
    }, 
    {
      "op": "tvm_op", 
      "name": "batch_norm26_sqrt", 
      "attrs": {
        "flatten_data": "1", 
        "func_name": "fuse_sqrt_4", 
        "num_inputs": "1", 
        "num_outputs": "1"
      }, 
      "inputs": [[514, 0, 0]]
    }, 
    {
      "op": "tvm_op", 
      "name": "batch_norm26_div", 
      "attrs": {
        "flatten_data": "1", 
        "func_name": "fuse___rdiv_scalar___4", 
        "num_inputs": "1", 
        "num_outputs": "1"
      }, 
      "inputs": [[515, 0, 0]]
    }, 
    {
      "op": "null", 
      "name": "_param_161", 
      "inputs": []
    }, 
    {
      "op": "tvm_op", 
      "name": "batch_norm26_gamma_mul_div", 
      "attrs": {
        "flatten_data": "1", 
        "func_name": "fuse_elemwise_mul_4", 
        "num_inputs": "2", 
        "num_outputs": "1"
      }, 
      "inputs": [[516, 0, 0], [517, 0, 0]]
    }, 
    {
      "op": "tvm_op", 
      "name": "batch_norm26_gamma_mul_div_expand", 
      "attrs": {
        "flatten_data": "0", 
        "func_name": "fuse_expand_dims_4", 
        "num_inputs": "1", 
        "num_outputs": "1"
      }, 
      "inputs": [[518, 0, 0]]
    }, 
    {
      "op": "tvm_op", 
      "name": "batch_norm26_a_mul_data", 
      "attrs": {
        "flatten_data": "0", 
        "func_name": "fuse_broadcast_mul_6", 
        "num_inputs": "2", 
        "num_outputs": "1"
      }, 
      "inputs": [[512, 0, 0], [519, 0, 0]]
    }, 
    {
      "op": "null", 
      "name": "_param_163", 
      "inputs": []
    }, 
    {
      "op": "tvm_op", 
      "name": "batch_norm26_neg_mean", 
      "attrs": {
        "flatten_data": "1", 
        "func_name": "fuse_negative_4", 
        "num_inputs": "1", 
        "num_outputs": "1"
      }, 
      "inputs": [[521, 0, 0]]
    }, 
    {
      "op": "tvm_op", 
      "name": "batch_norm26_neg_mean_mul_a", 
      "attrs": {
        "flatten_data": "1", 
        "func_name": "fuse_elemwise_mul_4", 
        "num_inputs": "2", 
        "num_outputs": "1"
      }, 
      "inputs": [[522, 0, 0], [518, 0, 0]]
    }, 
    {
      "op": "null", 
      "name": "_param_162", 
      "inputs": []
    }, 
    {
      "op": "tvm_op", 
      "name": "batch_norm26_add_beta", 
      "attrs": {
        "flatten_data": "1", 
        "func_name": "fuse_elemwise_add_6", 
        "num_inputs": "2", 
        "num_outputs": "1"
      }, 
      "inputs": [[523, 0, 0], [524, 0, 0]]
    }, 
    {
      "op": "tvm_op", 
      "name": "batch_norm26_add_beta_expand", 
      "attrs": {
        "flatten_data": "0", 
        "func_name": "fuse_expand_dims_4", 
        "num_inputs": "1", 
        "num_outputs": "1"
      }, 
      "inputs": [[525, 0, 0]]
    }, 
    {
      "op": "tvm_op", 
      "name": "batch_norm26_out", 
      "attrs": {
        "flatten_data": "0", 
        "func_name": "fuse_broadcast_add_6", 
        "num_inputs": "2", 
        "num_outputs": "1"
      }, 
      "inputs": [[520, 0, 0], [526, 0, 0]]
    }, 
    {
      "op": "null", 
      "name": "_param_159", 
      "inputs": []
    }, 
    {
      "op": "null", 
      "name": "_param_160", 
      "inputs": []
    }, 
    {
      "op": "tvm_op", 
      "name": "conv2d27", 
      "attrs": {
        "flatten_data": "0", 
        "func_name": "fuse_conv2d_13", 
        "num_inputs": "3", 
        "num_outputs": "1"
      }, 
      "inputs": [[470, 0, 0], [528, 0, 0], [529, 0, 0]]
    }, 
    {
      "op": "null", 
      "name": "_param_168", 
      "inputs": []
    }, 
    {
      "op": "tvm_op", 
      "name": "batch_norm27_add_eps", 
      "attrs": {
        "flatten_data": "1", 
        "func_name": "fuse___add_scalar___4", 
        "num_inputs": "1", 
        "num_outputs": "1"
      }, 
      "inputs": [[531, 0, 0]]
    }, 
    {
      "op": "tvm_op", 
      "name": "batch_norm27_sqrt", 
      "attrs": {
        "flatten_data": "1", 
        "func_name": "fuse_sqrt_4", 
        "num_inputs": "1", 
        "num_outputs": "1"
      }, 
      "inputs": [[532, 0, 0]]
    }, 
    {
      "op": "tvm_op", 
      "name": "batch_norm27_div", 
      "attrs": {
        "flatten_data": "1", 
        "func_name": "fuse___rdiv_scalar___4", 
        "num_inputs": "1", 
        "num_outputs": "1"
      }, 
      "inputs": [[533, 0, 0]]
    }, 
    {
      "op": "null", 
      "name": "_param_165", 
      "inputs": []
    }, 
    {
      "op": "tvm_op", 
      "name": "batch_norm27_gamma_mul_div", 
      "attrs": {
        "flatten_data": "1", 
        "func_name": "fuse_elemwise_mul_4", 
        "num_inputs": "2", 
        "num_outputs": "1"
      }, 
      "inputs": [[534, 0, 0], [535, 0, 0]]
    }, 
    {
      "op": "tvm_op", 
      "name": "batch_norm27_gamma_mul_div_expand", 
      "attrs": {
        "flatten_data": "0", 
        "func_name": "fuse_expand_dims_4", 
        "num_inputs": "1", 
        "num_outputs": "1"
      }, 
      "inputs": [[536, 0, 0]]
    }, 
    {
      "op": "tvm_op", 
      "name": "batch_norm27_a_mul_data", 
      "attrs": {
        "flatten_data": "0", 
        "func_name": "fuse_broadcast_mul_6", 
        "num_inputs": "2", 
        "num_outputs": "1"
      }, 
      "inputs": [[530, 0, 0], [537, 0, 0]]
    }, 
    {
      "op": "null", 
      "name": "_param_167", 
      "inputs": []
    }, 
    {
      "op": "tvm_op", 
      "name": "batch_norm27_neg_mean", 
      "attrs": {
        "flatten_data": "1", 
        "func_name": "fuse_negative_4", 
        "num_inputs": "1", 
        "num_outputs": "1"
      }, 
      "inputs": [[539, 0, 0]]
    }, 
    {
      "op": "tvm_op", 
      "name": "batch_norm27_neg_mean_mul_a", 
      "attrs": {
        "flatten_data": "1", 
        "func_name": "fuse_elemwise_mul_4", 
        "num_inputs": "2", 
        "num_outputs": "1"
      }, 
      "inputs": [[540, 0, 0], [536, 0, 0]]
    }, 
    {
      "op": "null", 
      "name": "_param_166", 
      "inputs": []
    }, 
    {
      "op": "tvm_op", 
      "name": "batch_norm27_add_beta", 
      "attrs": {
        "flatten_data": "1", 
        "func_name": "fuse_elemwise_add_6", 
        "num_inputs": "2", 
        "num_outputs": "1"
      }, 
      "inputs": [[541, 0, 0], [542, 0, 0]]
    }, 
    {
      "op": "tvm_op", 
      "name": "batch_norm27_add_beta_expand", 
      "attrs": {
        "flatten_data": "0", 
        "func_name": "fuse_expand_dims_4", 
        "num_inputs": "1", 
        "num_outputs": "1"
      }, 
      "inputs": [[543, 0, 0]]
    }, 
    {
      "op": "tvm_op", 
      "name": "batch_norm27_out", 
      "attrs": {
        "flatten_data": "0", 
        "func_name": "fuse_broadcast_add_6", 
        "num_inputs": "2", 
        "num_outputs": "1"
      }, 
      "inputs": [[538, 0, 0], [544, 0, 0]]
    }, 
    {
      "op": "tvm_op", 
      "name": "elemwise_add7", 
      "attrs": {
        "flatten_data": "1", 
        "func_name": "fuse_elemwise_add_7", 
        "num_inputs": "2", 
        "num_outputs": "1"
      }, 
      "inputs": [[527, 0, 0], [545, 0, 0]]
    }, 
    {
      "op": "tvm_op", 
      "name": "relu24", 
      "attrs": {
        "flatten_data": "1", 
        "func_name": "fuse_relu_6", 
        "num_inputs": "1", 
        "num_outputs": "1"
      }, 
      "inputs": [[546, 0, 0]]
    }, 
    {
      "op": "null", 
      "name": "_param_169", 
      "inputs": []
    }, 
    {
      "op": "null", 
      "name": "_param_170", 
      "inputs": []
    }, 
    {
      "op": "tvm_op", 
      "name": "conv2d28", 
      "attrs": {
        "flatten_data": "0", 
        "func_name": "fuse_conv2d_14", 
        "num_inputs": "3", 
        "num_outputs": "1"
      }, 
      "inputs": [[547, 0, 0], [548, 0, 0], [549, 0, 0]]
    }, 
    {
      "op": "null", 
      "name": "_param_174", 
      "inputs": []
    }, 
    {
      "op": "tvm_op", 
      "name": "batch_norm28_add_eps", 
      "attrs": {
        "flatten_data": "1", 
        "func_name": "fuse___add_scalar___1", 
        "num_inputs": "1", 
        "num_outputs": "1"
      }, 
      "inputs": [[551, 0, 0]]
    }, 
    {
      "op": "tvm_op", 
      "name": "batch_norm28_sqrt", 
      "attrs": {
        "flatten_data": "1", 
        "func_name": "fuse_sqrt_1", 
        "num_inputs": "1", 
        "num_outputs": "1"
      }, 
      "inputs": [[552, 0, 0]]
    }, 
    {
      "op": "tvm_op", 
      "name": "batch_norm28_div", 
      "attrs": {
        "flatten_data": "1", 
        "func_name": "fuse___rdiv_scalar___1", 
        "num_inputs": "1", 
        "num_outputs": "1"
      }, 
      "inputs": [[553, 0, 0]]
    }, 
    {
      "op": "null", 
      "name": "_param_171", 
      "inputs": []
    }, 
    {
      "op": "tvm_op", 
      "name": "batch_norm28_gamma_mul_div", 
      "attrs": {
        "flatten_data": "1", 
        "func_name": "fuse_elemwise_mul_1", 
        "num_inputs": "2", 
        "num_outputs": "1"
      }, 
      "inputs": [[554, 0, 0], [555, 0, 0]]
    }, 
    {
      "op": "tvm_op", 
      "name": "batch_norm28_gamma_mul_div_expand", 
      "attrs": {
        "flatten_data": "0", 
        "func_name": "fuse_expand_dims_1", 
        "num_inputs": "1", 
        "num_outputs": "1"
      }, 
      "inputs": [[556, 0, 0]]
    }, 
    {
      "op": "tvm_op", 
      "name": "batch_norm28_a_mul_data", 
      "attrs": {
        "flatten_data": "0", 
        "func_name": "fuse_broadcast_mul_5", 
        "num_inputs": "2", 
        "num_outputs": "1"
      }, 
      "inputs": [[550, 0, 0], [557, 0, 0]]
    }, 
    {
      "op": "null", 
      "name": "_param_173", 
      "inputs": []
    }, 
    {
      "op": "tvm_op", 
      "name": "batch_norm28_neg_mean", 
      "attrs": {
        "flatten_data": "1", 
        "func_name": "fuse_negative_1", 
        "num_inputs": "1", 
        "num_outputs": "1"
      }, 
      "inputs": [[559, 0, 0]]
    }, 
    {
      "op": "tvm_op", 
      "name": "batch_norm28_neg_mean_mul_a", 
      "attrs": {
        "flatten_data": "1", 
        "func_name": "fuse_elemwise_mul_1", 
        "num_inputs": "2", 
        "num_outputs": "1"
      }, 
      "inputs": [[560, 0, 0], [556, 0, 0]]
    }, 
    {
      "op": "null", 
      "name": "_param_172", 
      "inputs": []
    }, 
    {
      "op": "tvm_op", 
      "name": "batch_norm28_add_beta", 
      "attrs": {
        "flatten_data": "1", 
        "func_name": "fuse_elemwise_add_1", 
        "num_inputs": "2", 
        "num_outputs": "1"
      }, 
      "inputs": [[561, 0, 0], [562, 0, 0]]
    }, 
    {
      "op": "tvm_op", 
      "name": "batch_norm28_add_beta_expand", 
      "attrs": {
        "flatten_data": "0", 
        "func_name": "fuse_expand_dims_1", 
        "num_inputs": "1", 
        "num_outputs": "1"
      }, 
      "inputs": [[563, 0, 0]]
    }, 
    {
      "op": "tvm_op", 
      "name": "batch_norm28_out", 
      "attrs": {
        "flatten_data": "0", 
        "func_name": "fuse_broadcast_add_5", 
        "num_inputs": "2", 
        "num_outputs": "1"
      }, 
      "inputs": [[558, 0, 0], [564, 0, 0]]
    }, 
    {
      "op": "tvm_op", 
      "name": "relu25", 
      "attrs": {
        "flatten_data": "1", 
        "func_name": "fuse_relu_5", 
        "num_inputs": "1", 
        "num_outputs": "1"
      }, 
      "inputs": [[565, 0, 0]]
    }, 
    {
      "op": "tvm_op", 
      "name": "pad9", 
      "attrs": {
        "flatten_data": "0", 
        "func_name": "fuse_pad_3", 
        "num_inputs": "1", 
        "num_outputs": "1"
      }, 
      "inputs": [[566, 0, 0]]
    }, 
    {
      "op": "null", 
      "name": "_param_175", 
      "inputs": []
    }, 
    {
      "op": "null", 
      "name": "_param_176", 
      "inputs": []
    }, 
    {
      "op": "tvm_op", 
      "name": "conv2d29", 
      "attrs": {
        "flatten_data": "0", 
        "func_name": "fuse_conv2d_11", 
        "num_inputs": "3", 
        "num_outputs": "1"
      }, 
      "inputs": [[567, 0, 0], [568, 0, 0], [569, 0, 0]]
    }, 
    {
      "op": "null", 
      "name": "_param_180", 
      "inputs": []
    }, 
    {
      "op": "tvm_op", 
      "name": "batch_norm29_add_eps", 
      "attrs": {
        "flatten_data": "1", 
        "func_name": "fuse___add_scalar___1", 
        "num_inputs": "1", 
        "num_outputs": "1"
      }, 
      "inputs": [[571, 0, 0]]
    }, 
    {
      "op": "tvm_op", 
      "name": "batch_norm29_sqrt", 
      "attrs": {
        "flatten_data": "1", 
        "func_name": "fuse_sqrt_1", 
        "num_inputs": "1", 
        "num_outputs": "1"
      }, 
      "inputs": [[572, 0, 0]]
    }, 
    {
      "op": "tvm_op", 
      "name": "batch_norm29_div", 
      "attrs": {
        "flatten_data": "1", 
        "func_name": "fuse___rdiv_scalar___1", 
        "num_inputs": "1", 
        "num_outputs": "1"
      }, 
      "inputs": [[573, 0, 0]]
    }, 
    {
      "op": "null", 
      "name": "_param_177", 
      "inputs": []
    }, 
    {
      "op": "tvm_op", 
      "name": "batch_norm29_gamma_mul_div", 
      "attrs": {
        "flatten_data": "1", 
        "func_name": "fuse_elemwise_mul_1", 
        "num_inputs": "2", 
        "num_outputs": "1"
      }, 
      "inputs": [[574, 0, 0], [575, 0, 0]]
    }, 
    {
      "op": "tvm_op", 
      "name": "batch_norm29_gamma_mul_div_expand", 
      "attrs": {
        "flatten_data": "0", 
        "func_name": "fuse_expand_dims_1", 
        "num_inputs": "1", 
        "num_outputs": "1"
      }, 
      "inputs": [[576, 0, 0]]
    }, 
    {
      "op": "tvm_op", 
      "name": "batch_norm29_a_mul_data", 
      "attrs": {
        "flatten_data": "0", 
        "func_name": "fuse_broadcast_mul_5", 
        "num_inputs": "2", 
        "num_outputs": "1"
      }, 
      "inputs": [[570, 0, 0], [577, 0, 0]]
    }, 
    {
      "op": "null", 
      "name": "_param_179", 
      "inputs": []
    }, 
    {
      "op": "tvm_op", 
      "name": "batch_norm29_neg_mean", 
      "attrs": {
        "flatten_data": "1", 
        "func_name": "fuse_negative_1", 
        "num_inputs": "1", 
        "num_outputs": "1"
      }, 
      "inputs": [[579, 0, 0]]
    }, 
    {
      "op": "tvm_op", 
      "name": "batch_norm29_neg_mean_mul_a", 
      "attrs": {
        "flatten_data": "1", 
        "func_name": "fuse_elemwise_mul_1", 
        "num_inputs": "2", 
        "num_outputs": "1"
      }, 
      "inputs": [[580, 0, 0], [576, 0, 0]]
    }, 
    {
      "op": "null", 
      "name": "_param_178", 
      "inputs": []
    }, 
    {
      "op": "tvm_op", 
      "name": "batch_norm29_add_beta", 
      "attrs": {
        "flatten_data": "1", 
        "func_name": "fuse_elemwise_add_1", 
        "num_inputs": "2", 
        "num_outputs": "1"
      }, 
      "inputs": [[581, 0, 0], [582, 0, 0]]
    }, 
    {
      "op": "tvm_op", 
      "name": "batch_norm29_add_beta_expand", 
      "attrs": {
        "flatten_data": "0", 
        "func_name": "fuse_expand_dims_1", 
        "num_inputs": "1", 
        "num_outputs": "1"
      }, 
      "inputs": [[583, 0, 0]]
    }, 
    {
      "op": "tvm_op", 
      "name": "batch_norm29_out", 
      "attrs": {
        "flatten_data": "0", 
        "func_name": "fuse_broadcast_add_5", 
        "num_inputs": "2", 
        "num_outputs": "1"
      }, 
      "inputs": [[578, 0, 0], [584, 0, 0]]
    }, 
    {
      "op": "tvm_op", 
      "name": "relu26", 
      "attrs": {
        "flatten_data": "1", 
        "func_name": "fuse_relu_5", 
        "num_inputs": "1", 
        "num_outputs": "1"
      }, 
      "inputs": [[585, 0, 0]]
    }, 
    {
      "op": "null", 
      "name": "_param_181", 
      "inputs": []
    }, 
    {
      "op": "null", 
      "name": "_param_182", 
      "inputs": []
    }, 
    {
      "op": "tvm_op", 
      "name": "conv2d30", 
      "attrs": {
        "flatten_data": "0", 
        "func_name": "fuse_conv2d_12", 
        "num_inputs": "3", 
        "num_outputs": "1"
      }, 
      "inputs": [[586, 0, 0], [587, 0, 0], [588, 0, 0]]
    }, 
    {
      "op": "null", 
      "name": "_param_186", 
      "inputs": []
    }, 
    {
      "op": "tvm_op", 
      "name": "batch_norm30_add_eps", 
      "attrs": {
        "flatten_data": "1", 
        "func_name": "fuse___add_scalar___4", 
        "num_inputs": "1", 
        "num_outputs": "1"
      }, 
      "inputs": [[590, 0, 0]]
    }, 
    {
      "op": "tvm_op", 
      "name": "batch_norm30_sqrt", 
      "attrs": {
        "flatten_data": "1", 
        "func_name": "fuse_sqrt_4", 
        "num_inputs": "1", 
        "num_outputs": "1"
      }, 
      "inputs": [[591, 0, 0]]
    }, 
    {
      "op": "tvm_op", 
      "name": "batch_norm30_div", 
      "attrs": {
        "flatten_data": "1", 
        "func_name": "fuse___rdiv_scalar___4", 
        "num_inputs": "1", 
        "num_outputs": "1"
      }, 
      "inputs": [[592, 0, 0]]
    }, 
    {
      "op": "null", 
      "name": "_param_183", 
      "inputs": []
    }, 
    {
      "op": "tvm_op", 
      "name": "batch_norm30_gamma_mul_div", 
      "attrs": {
        "flatten_data": "1", 
        "func_name": "fuse_elemwise_mul_4", 
        "num_inputs": "2", 
        "num_outputs": "1"
      }, 
      "inputs": [[593, 0, 0], [594, 0, 0]]
    }, 
    {
      "op": "tvm_op", 
      "name": "batch_norm30_gamma_mul_div_expand", 
      "attrs": {
        "flatten_data": "0", 
        "func_name": "fuse_expand_dims_4", 
        "num_inputs": "1", 
        "num_outputs": "1"
      }, 
      "inputs": [[595, 0, 0]]
    }, 
    {
      "op": "tvm_op", 
      "name": "batch_norm30_a_mul_data", 
      "attrs": {
        "flatten_data": "0", 
        "func_name": "fuse_broadcast_mul_6", 
        "num_inputs": "2", 
        "num_outputs": "1"
      }, 
      "inputs": [[589, 0, 0], [596, 0, 0]]
    }, 
    {
      "op": "null", 
      "name": "_param_185", 
      "inputs": []
    }, 
    {
      "op": "tvm_op", 
      "name": "batch_norm30_neg_mean", 
      "attrs": {
        "flatten_data": "1", 
        "func_name": "fuse_negative_4", 
        "num_inputs": "1", 
        "num_outputs": "1"
      }, 
      "inputs": [[598, 0, 0]]
    }, 
    {
      "op": "tvm_op", 
      "name": "batch_norm30_neg_mean_mul_a", 
      "attrs": {
        "flatten_data": "1", 
        "func_name": "fuse_elemwise_mul_4", 
        "num_inputs": "2", 
        "num_outputs": "1"
      }, 
      "inputs": [[599, 0, 0], [595, 0, 0]]
    }, 
    {
      "op": "null", 
      "name": "_param_184", 
      "inputs": []
    }, 
    {
      "op": "tvm_op", 
      "name": "batch_norm30_add_beta", 
      "attrs": {
        "flatten_data": "1", 
        "func_name": "fuse_elemwise_add_6", 
        "num_inputs": "2", 
        "num_outputs": "1"
      }, 
      "inputs": [[600, 0, 0], [601, 0, 0]]
    }, 
    {
      "op": "tvm_op", 
      "name": "batch_norm30_add_beta_expand", 
      "attrs": {
        "flatten_data": "0", 
        "func_name": "fuse_expand_dims_4", 
        "num_inputs": "1", 
        "num_outputs": "1"
      }, 
      "inputs": [[602, 0, 0]]
    }, 
    {
      "op": "tvm_op", 
      "name": "batch_norm30_out", 
      "attrs": {
        "flatten_data": "0", 
        "func_name": "fuse_broadcast_add_6", 
        "num_inputs": "2", 
        "num_outputs": "1"
      }, 
      "inputs": [[597, 0, 0], [603, 0, 0]]
    }, 
    {
      "op": "tvm_op", 
      "name": "elemwise_add8", 
      "attrs": {
        "flatten_data": "1", 
        "func_name": "fuse_elemwise_add_7", 
        "num_inputs": "2", 
        "num_outputs": "1"
      }, 
      "inputs": [[604, 0, 0], [547, 0, 0]]
    }, 
    {
      "op": "tvm_op", 
      "name": "relu27", 
      "attrs": {
        "flatten_data": "1", 
        "func_name": "fuse_relu_6", 
        "num_inputs": "1", 
        "num_outputs": "1"
      }, 
      "inputs": [[605, 0, 0]]
    }, 
    {
      "op": "null", 
      "name": "_param_187", 
      "inputs": []
    }, 
    {
      "op": "null", 
      "name": "_param_188", 
      "inputs": []
    }, 
    {
      "op": "tvm_op", 
      "name": "conv2d31", 
      "attrs": {
        "flatten_data": "0", 
        "func_name": "fuse_conv2d_14", 
        "num_inputs": "3", 
        "num_outputs": "1"
      }, 
      "inputs": [[606, 0, 0], [607, 0, 0], [608, 0, 0]]
    }, 
    {
      "op": "null", 
      "name": "_param_192", 
      "inputs": []
    }, 
    {
      "op": "tvm_op", 
      "name": "batch_norm31_add_eps", 
      "attrs": {
        "flatten_data": "1", 
        "func_name": "fuse___add_scalar___1", 
        "num_inputs": "1", 
        "num_outputs": "1"
      }, 
      "inputs": [[610, 0, 0]]
    }, 
    {
      "op": "tvm_op", 
      "name": "batch_norm31_sqrt", 
      "attrs": {
        "flatten_data": "1", 
        "func_name": "fuse_sqrt_1", 
        "num_inputs": "1", 
        "num_outputs": "1"
      }, 
      "inputs": [[611, 0, 0]]
    }, 
    {
      "op": "tvm_op", 
      "name": "batch_norm31_div", 
      "attrs": {
        "flatten_data": "1", 
        "func_name": "fuse___rdiv_scalar___1", 
        "num_inputs": "1", 
        "num_outputs": "1"
      }, 
      "inputs": [[612, 0, 0]]
    }, 
    {
      "op": "null", 
      "name": "_param_189", 
      "inputs": []
    }, 
    {
      "op": "tvm_op", 
      "name": "batch_norm31_gamma_mul_div", 
      "attrs": {
        "flatten_data": "1", 
        "func_name": "fuse_elemwise_mul_1", 
        "num_inputs": "2", 
        "num_outputs": "1"
      }, 
      "inputs": [[613, 0, 0], [614, 0, 0]]
    }, 
    {
      "op": "tvm_op", 
      "name": "batch_norm31_gamma_mul_div_expand", 
      "attrs": {
        "flatten_data": "0", 
        "func_name": "fuse_expand_dims_1", 
        "num_inputs": "1", 
        "num_outputs": "1"
      }, 
      "inputs": [[615, 0, 0]]
    }, 
    {
      "op": "tvm_op", 
      "name": "batch_norm31_a_mul_data", 
      "attrs": {
        "flatten_data": "0", 
        "func_name": "fuse_broadcast_mul_5", 
        "num_inputs": "2", 
        "num_outputs": "1"
      }, 
      "inputs": [[609, 0, 0], [616, 0, 0]]
    }, 
    {
      "op": "null", 
      "name": "_param_191", 
      "inputs": []
    }, 
    {
      "op": "tvm_op", 
      "name": "batch_norm31_neg_mean", 
      "attrs": {
        "flatten_data": "1", 
        "func_name": "fuse_negative_1", 
        "num_inputs": "1", 
        "num_outputs": "1"
      }, 
      "inputs": [[618, 0, 0]]
    }, 
    {
      "op": "tvm_op", 
      "name": "batch_norm31_neg_mean_mul_a", 
      "attrs": {
        "flatten_data": "1", 
        "func_name": "fuse_elemwise_mul_1", 
        "num_inputs": "2", 
        "num_outputs": "1"
      }, 
      "inputs": [[619, 0, 0], [615, 0, 0]]
    }, 
    {
      "op": "null", 
      "name": "_param_190", 
      "inputs": []
    }, 
    {
      "op": "tvm_op", 
      "name": "batch_norm31_add_beta", 
      "attrs": {
        "flatten_data": "1", 
        "func_name": "fuse_elemwise_add_1", 
        "num_inputs": "2", 
        "num_outputs": "1"
      }, 
      "inputs": [[620, 0, 0], [621, 0, 0]]
    }, 
    {
      "op": "tvm_op", 
      "name": "batch_norm31_add_beta_expand", 
      "attrs": {
        "flatten_data": "0", 
        "func_name": "fuse_expand_dims_1", 
        "num_inputs": "1", 
        "num_outputs": "1"
      }, 
      "inputs": [[622, 0, 0]]
    }, 
    {
      "op": "tvm_op", 
      "name": "batch_norm31_out", 
      "attrs": {
        "flatten_data": "0", 
        "func_name": "fuse_broadcast_add_5", 
        "num_inputs": "2", 
        "num_outputs": "1"
      }, 
      "inputs": [[617, 0, 0], [623, 0, 0]]
    }, 
    {
      "op": "tvm_op", 
      "name": "relu28", 
      "attrs": {
        "flatten_data": "1", 
        "func_name": "fuse_relu_5", 
        "num_inputs": "1", 
        "num_outputs": "1"
      }, 
      "inputs": [[624, 0, 0]]
    }, 
    {
      "op": "tvm_op", 
      "name": "pad10", 
      "attrs": {
        "flatten_data": "0", 
        "func_name": "fuse_pad_3", 
        "num_inputs": "1", 
        "num_outputs": "1"
      }, 
      "inputs": [[625, 0, 0]]
    }, 
    {
      "op": "null", 
      "name": "_param_193", 
      "inputs": []
    }, 
    {
      "op": "null", 
      "name": "_param_194", 
      "inputs": []
    }, 
    {
      "op": "tvm_op", 
      "name": "conv2d32", 
      "attrs": {
        "flatten_data": "0", 
        "func_name": "fuse_conv2d_11", 
        "num_inputs": "3", 
        "num_outputs": "1"
      }, 
      "inputs": [[626, 0, 0], [627, 0, 0], [628, 0, 0]]
    }, 
    {
      "op": "null", 
      "name": "_param_198", 
      "inputs": []
    }, 
    {
      "op": "tvm_op", 
      "name": "batch_norm32_add_eps", 
      "attrs": {
        "flatten_data": "1", 
        "func_name": "fuse___add_scalar___1", 
        "num_inputs": "1", 
        "num_outputs": "1"
      }, 
      "inputs": [[630, 0, 0]]
    }, 
    {
      "op": "tvm_op", 
      "name": "batch_norm32_sqrt", 
      "attrs": {
        "flatten_data": "1", 
        "func_name": "fuse_sqrt_1", 
        "num_inputs": "1", 
        "num_outputs": "1"
      }, 
      "inputs": [[631, 0, 0]]
    }, 
    {
      "op": "tvm_op", 
      "name": "batch_norm32_div", 
      "attrs": {
        "flatten_data": "1", 
        "func_name": "fuse___rdiv_scalar___1", 
        "num_inputs": "1", 
        "num_outputs": "1"
      }, 
      "inputs": [[632, 0, 0]]
    }, 
    {
      "op": "null", 
      "name": "_param_195", 
      "inputs": []
    }, 
    {
      "op": "tvm_op", 
      "name": "batch_norm32_gamma_mul_div", 
      "attrs": {
        "flatten_data": "1", 
        "func_name": "fuse_elemwise_mul_1", 
        "num_inputs": "2", 
        "num_outputs": "1"
      }, 
      "inputs": [[633, 0, 0], [634, 0, 0]]
    }, 
    {
      "op": "tvm_op", 
      "name": "batch_norm32_gamma_mul_div_expand", 
      "attrs": {
        "flatten_data": "0", 
        "func_name": "fuse_expand_dims_1", 
        "num_inputs": "1", 
        "num_outputs": "1"
      }, 
      "inputs": [[635, 0, 0]]
    }, 
    {
      "op": "tvm_op", 
      "name": "batch_norm32_a_mul_data", 
      "attrs": {
        "flatten_data": "0", 
        "func_name": "fuse_broadcast_mul_5", 
        "num_inputs": "2", 
        "num_outputs": "1"
      }, 
      "inputs": [[629, 0, 0], [636, 0, 0]]
    }, 
    {
      "op": "null", 
      "name": "_param_197", 
      "inputs": []
    }, 
    {
      "op": "tvm_op", 
      "name": "batch_norm32_neg_mean", 
      "attrs": {
        "flatten_data": "1", 
        "func_name": "fuse_negative_1", 
        "num_inputs": "1", 
        "num_outputs": "1"
      }, 
      "inputs": [[638, 0, 0]]
    }, 
    {
      "op": "tvm_op", 
      "name": "batch_norm32_neg_mean_mul_a", 
      "attrs": {
        "flatten_data": "1", 
        "func_name": "fuse_elemwise_mul_1", 
        "num_inputs": "2", 
        "num_outputs": "1"
      }, 
      "inputs": [[639, 0, 0], [635, 0, 0]]
    }, 
    {
      "op": "null", 
      "name": "_param_196", 
      "inputs": []
    }, 
    {
      "op": "tvm_op", 
      "name": "batch_norm32_add_beta", 
      "attrs": {
        "flatten_data": "1", 
        "func_name": "fuse_elemwise_add_1", 
        "num_inputs": "2", 
        "num_outputs": "1"
      }, 
      "inputs": [[640, 0, 0], [641, 0, 0]]
    }, 
    {
      "op": "tvm_op", 
      "name": "batch_norm32_add_beta_expand", 
      "attrs": {
        "flatten_data": "0", 
        "func_name": "fuse_expand_dims_1", 
        "num_inputs": "1", 
        "num_outputs": "1"
      }, 
      "inputs": [[642, 0, 0]]
    }, 
    {
      "op": "tvm_op", 
      "name": "batch_norm32_out", 
      "attrs": {
        "flatten_data": "0", 
        "func_name": "fuse_broadcast_add_5", 
        "num_inputs": "2", 
        "num_outputs": "1"
      }, 
      "inputs": [[637, 0, 0], [643, 0, 0]]
    }, 
    {
      "op": "tvm_op", 
      "name": "relu29", 
      "attrs": {
        "flatten_data": "1", 
        "func_name": "fuse_relu_5", 
        "num_inputs": "1", 
        "num_outputs": "1"
      }, 
      "inputs": [[644, 0, 0]]
    }, 
    {
      "op": "null", 
      "name": "_param_199", 
      "inputs": []
    }, 
    {
      "op": "null", 
      "name": "_param_200", 
      "inputs": []
    }, 
    {
      "op": "tvm_op", 
      "name": "conv2d33", 
      "attrs": {
        "flatten_data": "0", 
        "func_name": "fuse_conv2d_12", 
        "num_inputs": "3", 
        "num_outputs": "1"
      }, 
      "inputs": [[645, 0, 0], [646, 0, 0], [647, 0, 0]]
    }, 
    {
      "op": "null", 
      "name": "_param_204", 
      "inputs": []
    }, 
    {
      "op": "tvm_op", 
      "name": "batch_norm33_add_eps", 
      "attrs": {
        "flatten_data": "1", 
        "func_name": "fuse___add_scalar___4", 
        "num_inputs": "1", 
        "num_outputs": "1"
      }, 
      "inputs": [[649, 0, 0]]
    }, 
    {
      "op": "tvm_op", 
      "name": "batch_norm33_sqrt", 
      "attrs": {
        "flatten_data": "1", 
        "func_name": "fuse_sqrt_4", 
        "num_inputs": "1", 
        "num_outputs": "1"
      }, 
      "inputs": [[650, 0, 0]]
    }, 
    {
      "op": "tvm_op", 
      "name": "batch_norm33_div", 
      "attrs": {
        "flatten_data": "1", 
        "func_name": "fuse___rdiv_scalar___4", 
        "num_inputs": "1", 
        "num_outputs": "1"
      }, 
      "inputs": [[651, 0, 0]]
    }, 
    {
      "op": "null", 
      "name": "_param_201", 
      "inputs": []
    }, 
    {
      "op": "tvm_op", 
      "name": "batch_norm33_gamma_mul_div", 
      "attrs": {
        "flatten_data": "1", 
        "func_name": "fuse_elemwise_mul_4", 
        "num_inputs": "2", 
        "num_outputs": "1"
      }, 
      "inputs": [[652, 0, 0], [653, 0, 0]]
    }, 
    {
      "op": "tvm_op", 
      "name": "batch_norm33_gamma_mul_div_expand", 
      "attrs": {
        "flatten_data": "0", 
        "func_name": "fuse_expand_dims_4", 
        "num_inputs": "1", 
        "num_outputs": "1"
      }, 
      "inputs": [[654, 0, 0]]
    }, 
    {
      "op": "tvm_op", 
      "name": "batch_norm33_a_mul_data", 
      "attrs": {
        "flatten_data": "0", 
        "func_name": "fuse_broadcast_mul_6", 
        "num_inputs": "2", 
        "num_outputs": "1"
      }, 
      "inputs": [[648, 0, 0], [655, 0, 0]]
    }, 
    {
      "op": "null", 
      "name": "_param_203", 
      "inputs": []
    }, 
    {
      "op": "tvm_op", 
      "name": "batch_norm33_neg_mean", 
      "attrs": {
        "flatten_data": "1", 
        "func_name": "fuse_negative_4", 
        "num_inputs": "1", 
        "num_outputs": "1"
      }, 
      "inputs": [[657, 0, 0]]
    }, 
    {
      "op": "tvm_op", 
      "name": "batch_norm33_neg_mean_mul_a", 
      "attrs": {
        "flatten_data": "1", 
        "func_name": "fuse_elemwise_mul_4", 
        "num_inputs": "2", 
        "num_outputs": "1"
      }, 
      "inputs": [[658, 0, 0], [654, 0, 0]]
    }, 
    {
      "op": "null", 
      "name": "_param_202", 
      "inputs": []
    }, 
    {
      "op": "tvm_op", 
      "name": "batch_norm33_add_beta", 
      "attrs": {
        "flatten_data": "1", 
        "func_name": "fuse_elemwise_add_6", 
        "num_inputs": "2", 
        "num_outputs": "1"
      }, 
      "inputs": [[659, 0, 0], [660, 0, 0]]
    }, 
    {
      "op": "tvm_op", 
      "name": "batch_norm33_add_beta_expand", 
      "attrs": {
        "flatten_data": "0", 
        "func_name": "fuse_expand_dims_4", 
        "num_inputs": "1", 
        "num_outputs": "1"
      }, 
      "inputs": [[661, 0, 0]]
    }, 
    {
      "op": "tvm_op", 
      "name": "batch_norm33_out", 
      "attrs": {
        "flatten_data": "0", 
        "func_name": "fuse_broadcast_add_6", 
        "num_inputs": "2", 
        "num_outputs": "1"
      }, 
      "inputs": [[656, 0, 0], [662, 0, 0]]
    }, 
    {
      "op": "tvm_op", 
      "name": "elemwise_add9", 
      "attrs": {
        "flatten_data": "1", 
        "func_name": "fuse_elemwise_add_7", 
        "num_inputs": "2", 
        "num_outputs": "1"
      }, 
      "inputs": [[663, 0, 0], [606, 0, 0]]
    }, 
    {
      "op": "tvm_op", 
      "name": "relu30", 
      "attrs": {
        "flatten_data": "1", 
        "func_name": "fuse_relu_6", 
        "num_inputs": "1", 
        "num_outputs": "1"
      }, 
      "inputs": [[664, 0, 0]]
    }, 
    {
      "op": "null", 
      "name": "_param_205", 
      "inputs": []
    }, 
    {
      "op": "null", 
      "name": "_param_206", 
      "inputs": []
    }, 
    {
      "op": "tvm_op", 
      "name": "conv2d34", 
      "attrs": {
        "flatten_data": "0", 
        "func_name": "fuse_conv2d_14", 
        "num_inputs": "3", 
        "num_outputs": "1"
      }, 
      "inputs": [[665, 0, 0], [666, 0, 0], [667, 0, 0]]
    }, 
    {
      "op": "null", 
      "name": "_param_210", 
      "inputs": []
    }, 
    {
      "op": "tvm_op", 
      "name": "batch_norm34_add_eps", 
      "attrs": {
        "flatten_data": "1", 
        "func_name": "fuse___add_scalar___1", 
        "num_inputs": "1", 
        "num_outputs": "1"
      }, 
      "inputs": [[669, 0, 0]]
    }, 
    {
      "op": "tvm_op", 
      "name": "batch_norm34_sqrt", 
      "attrs": {
        "flatten_data": "1", 
        "func_name": "fuse_sqrt_1", 
        "num_inputs": "1", 
        "num_outputs": "1"
      }, 
      "inputs": [[670, 0, 0]]
    }, 
    {
      "op": "tvm_op", 
      "name": "batch_norm34_div", 
      "attrs": {
        "flatten_data": "1", 
        "func_name": "fuse___rdiv_scalar___1", 
        "num_inputs": "1", 
        "num_outputs": "1"
      }, 
      "inputs": [[671, 0, 0]]
    }, 
    {
      "op": "null", 
      "name": "_param_207", 
      "inputs": []
    }, 
    {
      "op": "tvm_op", 
      "name": "batch_norm34_gamma_mul_div", 
      "attrs": {
        "flatten_data": "1", 
        "func_name": "fuse_elemwise_mul_1", 
        "num_inputs": "2", 
        "num_outputs": "1"
      }, 
      "inputs": [[672, 0, 0], [673, 0, 0]]
    }, 
    {
      "op": "tvm_op", 
      "name": "batch_norm34_gamma_mul_div_expand", 
      "attrs": {
        "flatten_data": "0", 
        "func_name": "fuse_expand_dims_1", 
        "num_inputs": "1", 
        "num_outputs": "1"
      }, 
      "inputs": [[674, 0, 0]]
    }, 
    {
      "op": "tvm_op", 
      "name": "batch_norm34_a_mul_data", 
      "attrs": {
        "flatten_data": "0", 
        "func_name": "fuse_broadcast_mul_5", 
        "num_inputs": "2", 
        "num_outputs": "1"
      }, 
      "inputs": [[668, 0, 0], [675, 0, 0]]
    }, 
    {
      "op": "null", 
      "name": "_param_209", 
      "inputs": []
    }, 
    {
      "op": "tvm_op", 
      "name": "batch_norm34_neg_mean", 
      "attrs": {
        "flatten_data": "1", 
        "func_name": "fuse_negative_1", 
        "num_inputs": "1", 
        "num_outputs": "1"
      }, 
      "inputs": [[677, 0, 0]]
    }, 
    {
      "op": "tvm_op", 
      "name": "batch_norm34_neg_mean_mul_a", 
      "attrs": {
        "flatten_data": "1", 
        "func_name": "fuse_elemwise_mul_1", 
        "num_inputs": "2", 
        "num_outputs": "1"
      }, 
      "inputs": [[678, 0, 0], [674, 0, 0]]
    }, 
    {
      "op": "null", 
      "name": "_param_208", 
      "inputs": []
    }, 
    {
      "op": "tvm_op", 
      "name": "batch_norm34_add_beta", 
      "attrs": {
        "flatten_data": "1", 
        "func_name": "fuse_elemwise_add_1", 
        "num_inputs": "2", 
        "num_outputs": "1"
      }, 
      "inputs": [[679, 0, 0], [680, 0, 0]]
    }, 
    {
      "op": "tvm_op", 
      "name": "batch_norm34_add_beta_expand", 
      "attrs": {
        "flatten_data": "0", 
        "func_name": "fuse_expand_dims_1", 
        "num_inputs": "1", 
        "num_outputs": "1"
      }, 
      "inputs": [[681, 0, 0]]
    }, 
    {
      "op": "tvm_op", 
      "name": "batch_norm34_out", 
      "attrs": {
        "flatten_data": "0", 
        "func_name": "fuse_broadcast_add_5", 
        "num_inputs": "2", 
        "num_outputs": "1"
      }, 
      "inputs": [[676, 0, 0], [682, 0, 0]]
    }, 
    {
      "op": "tvm_op", 
      "name": "relu31", 
      "attrs": {
        "flatten_data": "1", 
        "func_name": "fuse_relu_5", 
        "num_inputs": "1", 
        "num_outputs": "1"
      }, 
      "inputs": [[683, 0, 0]]
    }, 
    {
      "op": "tvm_op", 
      "name": "pad11", 
      "attrs": {
        "flatten_data": "0", 
        "func_name": "fuse_pad_3", 
        "num_inputs": "1", 
        "num_outputs": "1"
      }, 
      "inputs": [[684, 0, 0]]
    }, 
    {
      "op": "null", 
      "name": "_param_211", 
      "inputs": []
    }, 
    {
      "op": "null", 
      "name": "_param_212", 
      "inputs": []
    }, 
    {
      "op": "tvm_op", 
      "name": "conv2d35", 
      "attrs": {
        "flatten_data": "0", 
        "func_name": "fuse_conv2d_11", 
        "num_inputs": "3", 
        "num_outputs": "1"
      }, 
      "inputs": [[685, 0, 0], [686, 0, 0], [687, 0, 0]]
    }, 
    {
      "op": "null", 
      "name": "_param_216", 
      "inputs": []
    }, 
    {
      "op": "tvm_op", 
      "name": "batch_norm35_add_eps", 
      "attrs": {
        "flatten_data": "1", 
        "func_name": "fuse___add_scalar___1", 
        "num_inputs": "1", 
        "num_outputs": "1"
      }, 
      "inputs": [[689, 0, 0]]
    }, 
    {
      "op": "tvm_op", 
      "name": "batch_norm35_sqrt", 
      "attrs": {
        "flatten_data": "1", 
        "func_name": "fuse_sqrt_1", 
        "num_inputs": "1", 
        "num_outputs": "1"
      }, 
      "inputs": [[690, 0, 0]]
    }, 
    {
      "op": "tvm_op", 
      "name": "batch_norm35_div", 
      "attrs": {
        "flatten_data": "1", 
        "func_name": "fuse___rdiv_scalar___1", 
        "num_inputs": "1", 
        "num_outputs": "1"
      }, 
      "inputs": [[691, 0, 0]]
    }, 
    {
      "op": "null", 
      "name": "_param_213", 
      "inputs": []
    }, 
    {
      "op": "tvm_op", 
      "name": "batch_norm35_gamma_mul_div", 
      "attrs": {
        "flatten_data": "1", 
        "func_name": "fuse_elemwise_mul_1", 
        "num_inputs": "2", 
        "num_outputs": "1"
      }, 
      "inputs": [[692, 0, 0], [693, 0, 0]]
    }, 
    {
      "op": "tvm_op", 
      "name": "batch_norm35_gamma_mul_div_expand", 
      "attrs": {
        "flatten_data": "0", 
        "func_name": "fuse_expand_dims_1", 
        "num_inputs": "1", 
        "num_outputs": "1"
      }, 
      "inputs": [[694, 0, 0]]
    }, 
    {
      "op": "tvm_op", 
      "name": "batch_norm35_a_mul_data", 
      "attrs": {
        "flatten_data": "0", 
        "func_name": "fuse_broadcast_mul_5", 
        "num_inputs": "2", 
        "num_outputs": "1"
      }, 
      "inputs": [[688, 0, 0], [695, 0, 0]]
    }, 
    {
      "op": "null", 
      "name": "_param_215", 
      "inputs": []
    }, 
    {
      "op": "tvm_op", 
      "name": "batch_norm35_neg_mean", 
      "attrs": {
        "flatten_data": "1", 
        "func_name": "fuse_negative_1", 
        "num_inputs": "1", 
        "num_outputs": "1"
      }, 
      "inputs": [[697, 0, 0]]
    }, 
    {
      "op": "tvm_op", 
      "name": "batch_norm35_neg_mean_mul_a", 
      "attrs": {
        "flatten_data": "1", 
        "func_name": "fuse_elemwise_mul_1", 
        "num_inputs": "2", 
        "num_outputs": "1"
      }, 
      "inputs": [[698, 0, 0], [694, 0, 0]]
    }, 
    {
      "op": "null", 
      "name": "_param_214", 
      "inputs": []
    }, 
    {
      "op": "tvm_op", 
      "name": "batch_norm35_add_beta", 
      "attrs": {
        "flatten_data": "1", 
        "func_name": "fuse_elemwise_add_1", 
        "num_inputs": "2", 
        "num_outputs": "1"
      }, 
      "inputs": [[699, 0, 0], [700, 0, 0]]
    }, 
    {
      "op": "tvm_op", 
      "name": "batch_norm35_add_beta_expand", 
      "attrs": {
        "flatten_data": "0", 
        "func_name": "fuse_expand_dims_1", 
        "num_inputs": "1", 
        "num_outputs": "1"
      }, 
      "inputs": [[701, 0, 0]]
    }, 
    {
      "op": "tvm_op", 
      "name": "batch_norm35_out", 
      "attrs": {
        "flatten_data": "0", 
        "func_name": "fuse_broadcast_add_5", 
        "num_inputs": "2", 
        "num_outputs": "1"
      }, 
      "inputs": [[696, 0, 0], [702, 0, 0]]
    }, 
    {
      "op": "tvm_op", 
      "name": "relu32", 
      "attrs": {
        "flatten_data": "1", 
        "func_name": "fuse_relu_5", 
        "num_inputs": "1", 
        "num_outputs": "1"
      }, 
      "inputs": [[703, 0, 0]]
    }, 
    {
      "op": "null", 
      "name": "_param_217", 
      "inputs": []
    }, 
    {
      "op": "null", 
      "name": "_param_218", 
      "inputs": []
    }, 
    {
      "op": "tvm_op", 
      "name": "conv2d36", 
      "attrs": {
        "flatten_data": "0", 
        "func_name": "fuse_conv2d_12", 
        "num_inputs": "3", 
        "num_outputs": "1"
      }, 
      "inputs": [[704, 0, 0], [705, 0, 0], [706, 0, 0]]
    }, 
    {
      "op": "null", 
      "name": "_param_222", 
      "inputs": []
    }, 
    {
      "op": "tvm_op", 
      "name": "batch_norm36_add_eps", 
      "attrs": {
        "flatten_data": "1", 
        "func_name": "fuse___add_scalar___4", 
        "num_inputs": "1", 
        "num_outputs": "1"
      }, 
      "inputs": [[708, 0, 0]]
    }, 
    {
      "op": "tvm_op", 
      "name": "batch_norm36_sqrt", 
      "attrs": {
        "flatten_data": "1", 
        "func_name": "fuse_sqrt_4", 
        "num_inputs": "1", 
        "num_outputs": "1"
      }, 
      "inputs": [[709, 0, 0]]
    }, 
    {
      "op": "tvm_op", 
      "name": "batch_norm36_div", 
      "attrs": {
        "flatten_data": "1", 
        "func_name": "fuse___rdiv_scalar___4", 
        "num_inputs": "1", 
        "num_outputs": "1"
      }, 
      "inputs": [[710, 0, 0]]
    }, 
    {
      "op": "null", 
      "name": "_param_219", 
      "inputs": []
    }, 
    {
      "op": "tvm_op", 
      "name": "batch_norm36_gamma_mul_div", 
      "attrs": {
        "flatten_data": "1", 
        "func_name": "fuse_elemwise_mul_4", 
        "num_inputs": "2", 
        "num_outputs": "1"
      }, 
      "inputs": [[711, 0, 0], [712, 0, 0]]
    }, 
    {
      "op": "tvm_op", 
…
        0, 
        0, 
        0, 
        0, 
        0, 
        0, 
        0, 
        0, 
        0, 
        0, 
        0, 
        0, 
        0, 
        0, 
        0, 
        0, 
        0, 
        0, 
        0, 
        0, 
        0, 
        0, 
        0, 
        0, 
        0, 
        0, 
        0, 
        0, 
        0, 
        0, 
        0, 
        0, 
        0, 
        0, 
        0, 
        0, 
        0, 
        0, 
        0, 
        0, 
        0, 
        0, 
        0, 
        0, 
        0, 
        0, 
        0, 
        0, 
        0, 
        0, 
        0, 
        0, 
        0, 
        0, 
        0, 
        0, 
        0, 
        0, 
        0, 
        0, 
        0, 
        0, 
        0, 
        0, 
        0, 
        0, 
        0, 
        0, 
        0, 
        0, 
        0, 
        0, 
        0, 
        0, 
        0, 
        0, 
        0, 
        0, 
        0, 
        0, 
        0, 
        0, 
        0, 
        0, 
        0, 
        0, 
        0, 
        0, 
        0, 
        0, 
        0, 
        0, 
        0, 
        0, 
        0, 
        0, 
        0, 
        0, 
        0, 
        0, 
        0, 
        0, 
        0, 
        0, 
        0, 
        0, 
        0, 
        0, 
        0, 
        0, 
        0, 
        0, 
        0, 
        0, 
        0, 
        0, 
        0, 
        0, 
        0, 
        0, 
        0, 
        0, 
        0, 
        0, 
        0, 
        0, 
        0, 
        0, 
        0, 
        0, 
        0, 
        0, 
        0, 
        0, 
        0, 
        0, 
        0, 
        0, 
        0, 
        0, 
        0, 
        0, 
        0, 
        0, 
        0, 
        0, 
        0, 
        0, 
        0, 
        0, 
        0, 
        0, 
        0, 
        0, 
        0, 
        0, 
        0, 
        0, 
        0, 
        0, 
        0, 
        0, 
        0, 
        0, 
        0, 
        0, 
        0, 
        0, 
        0, 
        0, 
        0, 
        0, 
        0, 
        0, 
        0, 
        0, 
        0, 
        0, 
        0, 
        0, 
        0, 
        0, 
        0, 
        0, 
        0, 
        0, 
        0, 
        0, 
        0, 
        0, 
        0, 
        0, 
        0, 
        0, 
        0, 
        0, 
        0, 
        0, 
        0, 
        0, 
        0, 
        0, 
        0, 
        0, 
        0, 
        0, 
        0, 
        0, 
        0, 
        0, 
        0, 
        0, 
        0, 
        0, 
        0, 
        0, 
        0, 
        0, 
        0, 
        0, 
        0, 
        0, 
        0, 
        0, 
        0, 
        0, 
        0, 
        0, 
        0, 
        0, 
        0, 
        0, 
        0]], 
    "storage_inplace_index": ["list_int", [
        -1, 
        -1, 
        -1, 
        -1, 
        -1, 
        -1, 
        -1, 
        -1, 
        -1, 
        -1, 
        -1, 
        -1, 
        -1, 
        -1, 
        -1, 
        -1, 
        -1, 
        -1, 
        -1, 
        -1, 
        -1, 
        -1, 
        -1, 
        -1, 
        -1, 
        -1, 
        -1, 
        -1, 
        -1, 
        -1, 
        -1, 
        -1, 
        -1, 
        -1, 
        -1, 
        -1, 
        -1, 
        -1, 
        -1, 
        -1, 
        -1, 
        -1, 
        -1, 
        -1, 
        -1, 
        -1, 
        -1, 
        -1, 
        -1, 
        -1, 
        -1, 
        -1, 
        -1, 
        -1, 
        -1, 
        -1, 
        -1, 
        -1, 
        -1, 
        -1, 
        -1, 
        -1, 
        -1, 
        -1, 
        -1, 
        -1, 
        -1, 
        -1, 
        -1, 
        -1, 
        -1, 
        -1, 
        -1, 
        -1, 
        -1, 
        -1, 
        -1, 
        -1, 
        -1, 
        -1, 
        -1, 
        -1, 
        -1, 
        -1, 
        -1, 
        -1, 
        -1, 
        -1, 
        -1, 
        -1, 
        -1, 
        -1, 
        -1, 
        -1, 
        -1, 
        -1, 
        -1, 
        -1, 
        -1, 
        -1, 
        -1, 
        -1, 
        -1, 
        -1, 
        -1, 
        -1, 
        -1, 
        -1, 
        -1, 
        -1, 
        -1, 
        -1, 
        -1, 
        -1, 
        -1, 
        -1, 
        -1, 
        -1, 
        -1, 
        -1, 
        -1, 
        -1, 
        -1, 
        -1, 
        -1, 
        -1, 
        -1, 
        -1, 
        -1, 
        -1, 
        -1, 
        -1, 
        -1, 
        -1, 
        -1, 
        -1, 
        -1, 
        -1, 
        -1, 
        -1, 
        -1, 
        -1, 
        -1, 
        -1, 
        -1, 
        -1, 
        -1, 
        -1, 
        -1, 
        -1, 
        -1, 
        -1, 
        -1, 
        -1, 
        -1, 
        -1, 
        -1, 
        -1, 
        -1, 
        -1, 
        -1, 
        -1, 
        -1, 
        -1, 
        -1, 
        -1, 
        -1, 
        -1, 
        -1, 
        -1, 
        -1, 
        -1, 
        -1, 
        -1, 
        -1, 
        -1, 
        -1, 
        -1, 
        -1, 
        -1, 
        -1, 
        -1, 
        -1, 
        -1, 
        -1, 
        -1, 
        -1, 
        -1, 
        -1, 
        -1, 
        -1, 
        -1, 
        -1, 
        -1, 
        -1, 
        -1, 
        -1, 
        -1, 
        -1, 
        -1, 
        -1, 
        -1, 
        -1, 
        -1, 
        -1, 
        -1, 
        -1, 
        -1, 
        -1, 
        -1, 
        -1, 
        -1, 
        -1, 
        -1, 
        -1, 
        -1, 
        -1, 
        -1, 
        -1, 
        -1, 
        -1, 
        -1, 
        -1, 
        -1, 
        -1, 
        -1, 
        -1, 
        -1, 
        -1, 
        -1, 
        -1, 
        -1, 
        -1, 
        -1, 
        -1, 
        -1, 
        -1, 
        -1, 
        -1, 
        -1, 
        -1, 
        -1, 
        -1, 
        -1, 
        -1, 
        -1, 
        -1, 
        -1, 
        -1, 
        -1, 
        -1, 
        -1, 
        -1, 
        -1, 
        -1, 
        -1, 
        -1, 
        -1, 
        -1, 
        -1, 
        -1, 
        -1, 
        -1, 
        -1, 
        -1, 
        -1, 
        -1, 
        -1, 
        -1, 
        -1, 
        -1, 
        -1, 
        -1, 
        -1, 
        -1, 
        -1, 
        -1, 
        -1, 
        -1, 
        -1, 
        -1, 
        -1, 
        -1, 
        -1, 
        -1, 
        -1, 
        -1, 
        -1, 
        -1, 
        -1, 
        -1, 
        -1, 
        -1, 
        -1, 
        -1, 
        -1, 
        -1, 
        -1, 
        -1, 
        -1, 
        -1, 
        -1, 
        -1, 
        -1, 
        -1, 
        -1, 
        -1, 
        -1, 
        -1, 
        -1, 
        -1, 
        -1, 
        -1, 
        -1, 
        -1, 
        -1, 
        -1, 
        -1, 
        -1, 
        -1, 
        -1, 
        -1, 
        -1, 
        -1, 
        -1, 
        -1, 
        -1, 
        -1, 
        -1, 
        -1, 
        -1, 
        -1, 
        -1, 
        -1, 
        -1, 
        -1, 
        -1, 
        -1, 
        -1, 
        -1, 
        -1, 
        -1, 
        -1, 
        -1, 
        -1, 
        -1, 
        -1, 
        -1, 
        -1, 
        -1, 
        -1, 
        -1, 
        -1, 
        -1, 
        -1, 
        -1, 
        -1, 
        -1, 
        -1, 
        -1, 
        -1, 
        -1, 
        -1, 
        -1, 
        -1, 
        -1, 
        -1, 
        -1, 
        -1, 
        -1, 
        -1, 
        -1, 
        -1, 
        -1, 
        -1, 
        -1, 
        -1, 
        -1, 
        -1, 
        -1, 
        -1, 
        -1, 
        -1, 
        -1, 
        -1, 
        -1, 
        -1, 
        -1, 
        -1, 
        -1, 
        -1, 
        -1, 
        -1, 
        -1, 
        -1, 
        -1, 
        -1, 
        -1, 
        -1, 
        -1, 
        -1, 
        -1, 
        -1, 
        -1, 
        -1, 
        -1, 
        -1, 
        -1, 
        -1, 
        -1, 
        -1, 
        -1, 
        -1, 
        -1, 
        -1, 
        -1, 
        -1, 
        -1, 
        -1, 
        -1, 
        -1, 
        -1, 
        -1, 
        -1, 
        -1, 
        -1, 
        -1, 
        -1, 
        -1, 
        -1, 
        -1, 
        -1, 
        -1, 
        -1, 
        -1, 
        -1, 
        -1, 
        -1, 
        -1, 
        -1, 
        -1, 
        -1, 
        -1, 
        -1, 
        -1, 
        -1, 
        -1, 
        -1, 
        -1, 
        -1, 
        -1, 
        -1, 
        -1, 
        -1, 
        -1, 
        -1, 
        -1, 
        -1, 
        -1, 
        -1, 
        -1, 
        -1, 
        -1, 
        -1, 
        -1, 
        -1, 
        -1, 
        -1, 
        -1, 
        -1, 
        -1, 
        -1, 
        -1, 
        -1, 
        -1, 
        -1, 
        -1, 
        -1, 
        -1, 
        -1, 
        -1, 
        -1, 
        -1, 
        -1, 
        -1, 
        -1, 
        -1, 
        -1, 
        -1, 
        -1, 
        -1, 
        -1, 
        -1, 
        -1, 
        -1, 
        -1, 
        -1, 
        -1, 
        -1, 
        -1, 
        -1, 
        -1, 
        -1, 
        -1, 
        -1, 
        -1, 
        -1, 
        -1, 
        -1, 
        -1, 
        -1, 
        -1, 
        -1, 
        -1, 
        -1, 
        -1, 
        -1, 
        -1, 
        -1, 
        -1, 
        -1, 
        -1, 
        -1, 
        -1, 
        -1, 
        -1, 
        -1, 
        -1, 
        -1, 
        -1, 
        -1, 
        -1, 
        -1, 
        -1, 
        -1, 
        -1, 
        -1, 
        -1, 
        -1, 
        -1, 
        -1, 
        -1, 
        -1, 
        -1, 
        -1, 
        -1, 
        -1, 
        -1, 
        -1, 
        -1, 
        -1, 
        -1, 
        -1, 
        -1, 
        -1, 
        -1, 
        -1, 
        -1, 
        -1, 
        -1, 
        -1, 
        -1, 
        -1, 
        -1, 
        -1, 
        -1, 
        -1, 
        -1, 
        -1, 
        -1, 
        -1, 
        -1, 
        -1, 
        -1, 
        -1, 
        -1, 
        -1, 
        -1, 
        -1, 
        -1, 
        -1, 
        -1, 
        -1, 
        -1, 
        -1, 
        -1, 
        -1, 
        -1, 
        -1, 
        -1, 
        -1, 
        -1, 
        -1, 
        -1, 
        -1, 
        -1, 
        -1, 
        -1, 
        -1, 
        -1, 
        -1, 
        -1, 
        -1, 
        -1, 
        -1, 
        -1, 
        -1, 
        -1, 
        -1, 
        -1, 
        -1, 
        -1, 
        -1, 
        -1, 
        -1, 
        -1, 
        -1, 
        -1, 
        -1, 
        -1, 
        -1, 
        -1, 
        -1, 
        -1, 
        -1, 
        -1, 
        -1, 
        -1, 
        -1, 
        -1, 
        -1, 
        -1, 
        -1, 
        -1, 
        -1, 
        -1, 
        -1, 
        -1, 
        -1, 
        -1, 
        -1, 
        -1, 
        -1, 
        -1, 
        -1, 
        -1, 
        -1, 
        -1, 
        -1, 
        -1, 
        -1, 
        -1, 
        -1, 
        -1, 
        -1, 
        -1, 
        -1, 
        -1, 
        -1, 
        -1, 
        -1, 
        -1, 
        -1, 
        -1, 
        -1, 
        -1, 
        -1, 
        -1, 
        -1, 
        -1, 
        -1, 
        -1, 
        -1, 
        -1, 
        -1, 
        -1, 
        -1, 
        -1, 
        -1, 
        -1, 
        -1, 
        -1, 
        -1, 
        -1, 
        -1, 
        -1, 
        -1, 
        -1, 
        -1, 
        -1, 
        -1, 
        -1, 
        -1, 
        -1, 
        -1, 
        -1, 
        -1, 
        -1, 
        -1, 
        -1, 
        -1, 
        -1, 
        -1, 
        -1, 
        -1, 
        -1, 
        -1, 
        -1, 
        -1, 
        -1, 
        -1, 
        -1, 
        -1, 
        -1, 
        -1, 
        -1, 
        -1, 
        -1, 
        -1, 
        -1, 
        -1, 
        -1, 
        -1, 
        -1, 
        -1, 
        -1, 
        -1, 
        -1, 
        -1, 
        -1, 
        -1, 
        -1, 
        -1, 
        -1, 
        -1, 
        -1, 
        -1, 
        -1, 
        -1, 
        -1, 
        -1, 
        -1, 
        -1, 
        -1, 
        -1, 
        -1, 
        -1, 
        -1, 
        -1, 
        -1, 
        -1, 
        -1, 
        -1, 
        -1, 
        -1, 
        -1, 
        -1, 
        -1, 
        -1, 
        -1, 
        -1, 
        -1, 
        -1, 
        -1, 
        -1, 
        -1, 
        -1, 
        -1, 
        -1, 
        -1, 
        -1, 
        -1, 
        -1, 
        -1, 
        -1, 
        -1, 
        -1, 
        -1, 
        -1, 
        -1, 
        -1, 
        -1, 
        -1, 
        -1, 
        -1, 
        -1, 
        -1, 
        -1, 
        -1, 
        -1, 
        -1, 
        -1, 
        -1, 
        -1, 
        -1, 
        -1, 
        -1, 
        -1, 
        -1, 
        -1, 
        -1, 
        -1, 
        -1, 
        -1, 
        -1, 
        -1, 
        -1, 
        -1, 
        -1, 
        -1, 
        -1, 
        -1, 
        -1, 
        -1, 
        -1, 
        -1, 
        -1, 
        -1, 
        -1, 
        -1, 
        -1, 
        -1, 
        -1, 
        -1, 
        -1, 
        -1, 
        -1, 
        -1, 
        -1, 
        -1, 
        -1, 
        -1, 
        -1, 
        -1, 
        -1, 
        -1, 
        -1, 
        -1, 
        -1, 
        -1, 
        -1, 
        -1, 
        -1, 
        -1, 
        -1, 
        -1, 
        -1, 
        -1, 
        -1, 
        -1, 
        -1, 
        -1, 
        -1, 
        -1, 
        -1, 
        -1, 
        -1, 
        -1, 
        -1, 
        -1, 
        -1, 
        -1, 
        -1, 
        -1, 
        -1, 
        -1, 
        -1, 
        -1, 
        -1, 
        -1, 
        -1, 
        -1, 
        -1, 
        -1, 
        -1, 
        -1, 
        -1, 
        -1, 
        -1, 
        -1, 
        -1, 
        -1, 
        -1, 
        -1, 
        -1, 
        -1, 
        -1, 
        -1, 
        -1, 
        -1, 
        -1, 
        -1, 
        -1, 
        -1, 
        -1, 
        -1, 
        -1, 
        -1, 
        -1, 
        -1, 
        -1, 
        -1, 
        -1, 
        -1, 
        -1, 
        -1, 
        -1, 
        -1, 
        -1, 
        -1, 
        -1, 
        -1, 
        -1, 
        -1, 
        -1, 
        -1, 
        -1, 
        -1, 
        -1, 
        -1, 
        -1, 
        -1, 
        -1, 
        -1, 
        -1, 
        -1, 
        -1, 
        -1, 
        -1, 
        -1, 
        -1, 
        -1, 
        -1, 
        -1, 
        -1, 
        -1, 
        -1, 
        -1, 
        -1, 
        -1, 
        -1, 
        -1, 
        -1, 
        -1, 
        -1, 
        -1, 
        -1, 
        -1, 
        -1, 
        -1, 
        -1, 
        -1, 
        -1, 
        -1, 
        -1, 
        -1, 
        -1, 
        -1, 
        -1, 
        -1, 
        -1, 
        -1, 
        -1, 
        -1, 
        -1, 
        -1, 
        -1, 
        -1, 
        -1, 
        -1, 
        -1, 
        -1, 
        -1, 
        -1, 
        -1, 
        -1, 
        -1, 
        -1, 
        -1, 
        -1, 
        -1, 
        -1, 
        -1, 
        -1, 
        -1, 
        -1, 
        -1, 
        -1, 
        -1, 
        -1, 
        -1, 
        -1, 
        -1, 
        -1, 
        -1, 
        -1, 
        -1, 
        -1, 
        -1, 
        -1, 
        -1, 
        -1, 
        -1, 
        -1, 
        -1, 
        -1, 
        -1, 
        -1, 
        -1, 
        -1, 
        -1, 
        -1, 
        -1, 
        -1, 
        -1, 
        -1, 
        -1, 
        -1, 
        -1, 
        -1, 
        -1, 
        -1, 
        -1, 
        -1, 
        -1, 
        -1, 
        -1, 
        -1, 
        -1, 
        -1, 
        -1, 
        -1, 
        -1, 
        -1, 
        -1, 
        -1, 
        -1, 
        -1, 
        -1, 
        -1, 
        -1, 
        -1, 
        -1, 
        -1, 
        -1]], 
    "shape": ["list_shape", [
        [1, 3, 224, 224], 
        [1, 3, 230, 230], 
        [64, 3, 7, 7], 
        [64], 
        [1, 64, 112, 112], 
        [64], 
        [64], 
        [64], 
        [64], 
        [64], 
        [64], 
        [64, 1, 1], 
        [1, 64, 112, 112], 
        [64], 
        [64], 
        [64], 
        [64], 
        [64], 
        [64, 1, 1], 
        [1, 64, 112, 112], 
        [1, 64, 112, 112], 
        [1, 64, 55, 55], 
        [64, 64, 1, 1], 
        [64], 
        [1, 64, 55, 55], 
        [64], 
        [64], 
        [64], 
        [64], 
        [64], 
        [64], 
        [64, 1, 1], 
        [1, 64, 55, 55], 
        [64], 
        [64], 
        [64], 
        [64], 
        [64], 
        [64, 1, 1], 
        [1, 64, 55, 55], 
        [1, 64, 55, 55], 
        [1, 64, 57, 57], 
        [64, 64, 3, 3], 
        [64], 
        [1, 64, 55, 55], 
        [64], 
        [64], 
        [64], 
        [64], 
        [64], 
        [64], 
        [64, 1, 1], 
        [1, 64, 55, 55], 
        [64], 
        [64], 
        [64], 
        [64], 
        [64], 
        [64, 1, 1], 
        [1, 64, 55, 55], 
        [1, 64, 55, 55], 
        [256, 64, 1, 1], 
        [256], 
        [1, 256, 55, 55], 
        [256], 
        [256], 
        [256], 
        [256], 
        [256], 
        [256], 
        [256, 1, 1], 
        [1, 256, 55, 55], 
        [256], 
        [256], 
        [256], 
        [256], 
        [256], 
        [256, 1, 1], 
        [1, 256, 55, 55], 
        [256, 64, 1, 1], 
        [256], 
        [1, 256, 55, 55], 
        [256], 
        [256], 
        [256], 
        [256], 
        [256], 
        [256], 
        [256, 1, 1], 
        [1, 256, 55, 55], 
        [256], 
        [256], 
        [256], 
        [256], 
        [256], 
        [256, 1, 1], 
        [1, 256, 55, 55], 
        [1, 256, 55, 55], 
        [1, 256, 55, 55], 
        [64, 256, 1, 1], 
        [64], 
        [1, 64, 55, 55], 
        [64], 
        [64], 
        [64], 
        [64], 
        [64], 
        [64], 
        [64, 1, 1], 
        [1, 64, 55, 55], 
        [64], 
        [64], 
        [64], 
        [64], 
        [64], 
        [64, 1, 1], 
        [1, 64, 55, 55], 
        [1, 64, 55, 55], 
        [1, 64, 57, 57], 
        [64, 64, 3, 3], 
        [64], 
        [1, 64, 55, 55], 
        [64], 
        [64], 
        [64], 
        [64], 
        [64], 
        [64], 
        [64, 1, 1], 
        [1, 64, 55, 55], 
        [64], 
        [64], 
        [64], 
        [64], 
        [64], 
        [64, 1, 1], 
        [1, 64, 55, 55], 
        [1, 64, 55, 55], 
        [256, 64, 1, 1], 
        [256], 
        [1, 256, 55, 55], 
        [256], 
        [256], 
        [256], 
        [256], 
        [256], 
        [256], 
        [256, 1, 1], 
        [1, 256, 55, 55], 
        [256], 
        [256], 
        [256], 
        [256], 
        [256], 
        [256, 1, 1], 
        [1, 256, 55, 55], 
        [1, 256, 55, 55], 
        [1, 256, 55, 55], 
        [64, 256, 1, 1], 
        [64], 
        [1, 64, 55, 55], 
        [64], 
        [64], 
        [64], 
        [64], 
        [64], 
        [64], 
        [64, 1, 1], 
        [1, 64, 55, 55], 
        [64], 
        [64], 
        [64], 
        [64], 
        [64], 
        [64, 1, 1], 
        [1, 64, 55, 55], 
        [1, 64, 55, 55], 
        [1, 64, 57, 57], 
        [64, 64, 3, 3], 
        [64], 
        [1, 64, 55, 55], 
        [64], 
        [64], 
        [64], 
        [64], 
        [64], 
        [64], 
        [64, 1, 1], 
        [1, 64, 55, 55], 
        [64], 
        [64], 
        [64], 
        [64], 
        [64], 
        [64, 1, 1], 
        [1, 64, 55, 55], 
        [1, 64, 55, 55], 
        [256, 64, 1, 1], 
        [256], 
        [1, 256, 55, 55], 
        [256], 
        [256], 
        [256], 
        [256], 
        [256], 
        [256], 
        [256, 1, 1], 
        [1, 256, 55, 55], 
        [256], 
        [256], 
        [256], 
        [256], 
        [256], 
        [256, 1, 1], 
        [1, 256, 55, 55], 
        [1, 256, 55, 55], 
        [1, 256, 55, 55], 
        [128, 256, 1, 1], 
        [128], 
        [1, 128, 28, 28], 
        [128], 
        [128], 
        [128], 
        [128], 
        [128], 
        [128], 
        [128, 1, 1], 
        [1, 128, 28, 28], 
        [128], 
        [128], 
        [128], 
        [128], 
        [128], 
        [128, 1, 1], 
        [1, 128, 28, 28], 
        [1, 128, 28, 28], 
        [1, 128, 30, 30], 
        [128, 128, 3, 3], 
        [128], 
        [1, 128, 28, 28], 
        [128], 
        [128], 
        [128], 
        [128], 
        [128], 
        [128], 
        [128, 1, 1], 
        [1, 128, 28, 28], 
        [128], 
        [128], 
        [128], 
        [128], 
        [128], 
        [128, 1, 1], 
        [1, 128, 28, 28], 
        [1, 128, 28, 28], 
        [512, 128, 1, 1], 
        [512], 
        [1, 512, 28, 28], 
        [512], 
        [512], 
        [512], 
        [512], 
        [512], 
        [512], 
        [512, 1, 1], 
        [1, 512, 28, 28], 
        [512], 
        [512], 
        [512], 
        [512], 
        [512], 
        [512, 1, 1], 
        [1, 512, 28, 28], 
        [512, 256, 1, 1], 
        [512], 
        [1, 512, 28, 28], 
        [512], 
        [512], 
        [512], 
        [512], 
        [512], 
        [512], 
        [512, 1, 1], 
        [1, 512, 28, 28], 
        [512], 
        [512], 
        [512], 
        [512], 
        [512], 
        [512, 1, 1], 
        [1, 512, 28, 28], 
        [1, 512, 28, 28], 
        [1, 512, 28, 28], 
        [128, 512, 1, 1], 
        [128], 
        [1, 128, 28, 28], 
        [128], 
        [128], 
        [128], 
        [128], 
        [128], 
        [128], 
        [128, 1, 1], 
        [1, 128, 28, 28], 
        [128], 
        [128], 
        [128], 
        [128], 
        [128], 
        [128, 1, 1], 
        [1, 128, 28, 28], 
        [1, 128, 28, 28], 
        [1, 128, 30, 30], 
        [128, 128, 3, 3], 
        [128], 
        [1, 128, 28, 28], 
        [128], 
        [128], 
        [128], 
        [128], 
        [128], 
        [128], 
        [128, 1, 1], 
        [1, 128, 28, 28], 
        [128], 
        [128], 
        [128], 
        [128], 
        [128], 
        [128, 1, 1], 
        [1, 128, 28, 28], 
        [1, 128, 28, 28], 
        [512, 128, 1, 1], 
        [512], 
        [1, 512, 28, 28], 
        [512], 
        [512], 
        [512], 
        [512], 
        [512], 
        [512], 
        [512, 1, 1], 
        [1, 512, 28, 28], 
        [512], 
        [512], 
        [512], 
        [512], 
        [512], 
        [512, 1, 1], 
        [1, 512, 28, 28], 
        [1, 512, 28, 28], 
        [1, 512, 28, 28], 
        [128, 512, 1, 1], 
        [128], 
        [1, 128, 28, 28], 
        [128], 
        [128], 
        [128], 
        [128], 
        [128], 
        [128], 
        [128, 1, 1], 
        [1, 128, 28, 28], 
        [128], 
        [128], 
        [128], 
        [128], 
        [128], 
        [128, 1, 1], 
        [1, 128, 28, 28], 
        [1, 128, 28, 28], 
        [1, 128, 30, 30], 
        [128, 128, 3, 3], 
        [128], 
        [1, 128, 28, 28], 
        [128], 
        [128], 
        [128], 
        [128], 
        [128], 
        [128], 
        [128, 1, 1], 
        [1, 128, 28, 28], 
        [128], 
        [128], 
        [128], 
        [128], 
        [128], 
        [128, 1, 1], 
        [1, 128, 28, 28], 
        [1, 128, 28, 28], 
        [512, 128, 1, 1], 
        [512], 
        [1, 512, 28, 28], 
        [512], 
        [512], 
        [512], 
        [512], 
        [512], 
        [512], 
        [512, 1, 1], 
        [1, 512, 28, 28], 
        [512], 
        [512], 
        [512], 
        [512], 
        [512], 
        [512, 1, 1], 
        [1, 512, 28, 28], 
        [1, 512, 28, 28], 
        [1, 512, 28, 28], 
        [128, 512, 1, 1], 
        [128], 
        [1, 128, 28, 28], 
        [128], 
        [128], 
        [128], 
        [128], 
        [128], 
        [128], 
        [128, 1, 1], 
        [1, 128, 28, 28], 
        [128], 
        [128], 
        [128], 
        [128], 
        [128], 
        [128, 1, 1], 
        [1, 128, 28, 28], 
        [1, 128, 28, 28], 
        [1, 128, 30, 30], 
        [128, 128, 3, 3], 
        [128], 
        [1, 128, 28, 28], 
        [128], 
        [128], 
        [128], 
        [128], 
        [128], 
        [128], 
        [128, 1, 1], 
        [1, 128, 28, 28], 
        [128], 
        [128], 
        [128], 
        [128], 
        [128], 
        [128, 1, 1], 
        [1, 128, 28, 28], 
        [1, 128, 28, 28], 
        [512, 128, 1, 1], 
        [512], 
        [1, 512, 28, 28], 
        [512], 
        [512], 
        [512], 
        [512], 
        [512], 
        [512], 
        [512, 1, 1], 
        [1, 512, 28, 28], 
        [512], 
        [512], 
        [512], 
        [512], 
        [512], 
        [512, 1, 1], 
        [1, 512, 28, 28], 
        [1, 512, 28, 28], 
        [1, 512, 28, 28], 
        [256, 512, 1, 1], 
        [256], 
        [1, 256, 14, 14], 
        [256], 
        [256], 
        [256], 
        [256], 
        [256], 
        [256], 
        [256, 1, 1], 
        [1, 256, 14, 14], 
        [256], 
        [256], 
        [256], 
        [256], 
        [256], 
        [256, 1, 1], 
        [1, 256, 14, 14], 
        [1, 256, 14, 14], 
        [1, 256, 16, 16], 
        [256, 256, 3, 3], 
        [256], 
        [1, 256, 14, 14], 
        [256], 
        [256], 
        [256], 
        [256], 
        [256], 
        [256], 
        [256, 1, 1], 
        [1, 256, 14, 14], 
        [256], 
        [256], 
        [256], 
        [256], 
        [256], 
        [256, 1, 1], 
        [1, 256, 14, 14], 
        [1, 256, 14, 14], 
        [1024, 256, 1, 1], 
        [1024], 
        [1, 1024, 14, 14], 
        [1024], 
        [1024], 
        [1024], 
        [1024], 
        [1024], 
        [1024], 
        [1024, 1, 1], 
        [1, 1024, 14, 14], 
        [1024], 
        [1024], 
        [1024], 
        [1024], 
        [1024], 
        [1024, 1, 1], 
        [1, 1024, 14, 14], 
        [1024, 512, 1, 1], 
        [1024], 
        [1, 1024, 14, 14], 
        [1024], 
        [1024], 
        [1024], 
        [1024], 
        [1024], 
        [1024], 
        [1024, 1, 1], 
        [1, 1024, 14, 14], 
        [1024], 
        [1024], 
        [1024], 
        [1024], 
        [1024], 
        [1024, 1, 1], 
        [1, 1024, 14, 14], 
        [1, 1024, 14, 14], 
        [1, 1024, 14, 14], 
        [256, 1024, 1, 1], 
        [256], 
        [1, 256, 14, 14], 
        [256], 
        [256], 
        [256], 
        [256], 
        [256], 
        [256], 
        [256, 1, 1], 
        [1, 256, 14, 14], 
        [256], 
        [256], 
        [256], 
        [256], 
        [256], 
        [256, 1, 1], 
        [1, 256, 14, 14], 
        [1, 256, 14, 14], 
        [1, 256, 16, 16], 
        [256, 256, 3, 3], 
        [256], 
        [1, 256, 14, 14], 
        [256], 
        [256], 
        [256], 
        [256], 
        [256], 
        [256], 
        [256, 1, 1], 
        [1, 256, 14, 14], 
        [256], 
        [256], 
        [256], 
        [256], 
        [256], 
        [256, 1, 1], 
        [1, 256, 14, 14], 
        [1, 256, 14, 14], 
        [1024, 256, 1, 1], 
        [1024], 
        [1, 1024, 14, 14], 
        [1024], 
        [1024], 
        [1024], 
        [1024], 
        [1024], 
        [1024], 
        [1024, 1, 1], 
        [1, 1024, 14, 14], 
        [1024], 
        [1024], 
        [1024], 
        [1024], 
        [1024], 
        [1024, 1, 1], 
        [1, 1024, 14, 14], 
        [1, 1024, 14, 14], 
        [1, 1024, 14, 14], 
        [256, 1024, 1, 1], 
        [256], 
        [1, 256, 14, 14], 
        [256], 
        [256], 
        [256], 
        [256], 
        [256], 
        [256], 
        [256, 1, 1], 
        [1, 256, 14, 14], 
        [256], 
        [256], 
        [256], 
        [256], 
        [256], 
        [256, 1, 1], 
        [1, 256, 14, 14], 
        [1, 256, 14, 14], 
        [1, 256, 16, 16], 
        [256, 256, 3, 3], 
        [256], 
        [1, 256, 14, 14], 
        [256], 
        [256], 
        [256], 
        [256], 
        [256], 
        [256], 
        [256, 1, 1], 
        [1, 256, 14, 14], 
        [256], 
        [256], 
        [256], 
        [256], 
        [256], 
        [256, 1, 1], 
        [1, 256, 14, 14], 
        [1, 256, 14, 14], 
        [1024, 256, 1, 1], 
        [1024], 
        [1, 1024, 14, 14], 
        [1024], 
        [1024], 
        [1024], 
        [1024], 
        [1024], 
        [1024], 
        [1024, 1, 1], 
        [1, 1024, 14, 14], 
        [1024], 
        [1024], 
        [1024], 
        [1024], 
        [1024], 
        [1024, 1, 1], 
        [1, 1024, 14, 14], 
        [1, 1024, 14, 14], 
        [1, 1024, 14, 14], 
        [256, 1024, 1, 1], 
        [256], 
        [1, 256, 14, 14], 
        [256], 
        [256], 
        [256], 
        [256], 
        [256], 
        [256], 
        [256, 1, 1], 
        [1, 256, 14, 14], 
        [256], 
        [256], 
        [256], 
        [256], 
        [256], 
        [256, 1, 1], 
        [1, 256, 14, 14], 
        [1, 256, 14, 14], 
        [1, 256, 16, 16], 
        [256, 256, 3, 3], 
        [256], 
        [1, 256, 14, 14], 
        [256], 
        [256], 
        [256], 
        [256], 
        [256], 
        [256], 
        [256, 1, 1], 
        [1, 256, 14, 14], 
        [256], 
        [256], 
        [256], 
        [256], 
        [256], 
        [256, 1, 1], 
        [1, 256, 14, 14], 
        [1, 256, 14, 14], 
        [1024, 256, 1, 1], 
        [1024], 
        [1, 1024, 14, 14], 
        [1024], 
        [1024], 
        [1024], 
        [1024], 
        [1024], 
        [1024], 
        [1024, 1, 1], 
        [1, 1024, 14, 14], 
        [1024], 
        [1024], 
        [1024], 
        [1024], 
        [1024], 
        [1024, 1, 1], 
        [1, 1024, 14, 14], 
        [1, 1024, 14, 14], 
        [1, 1024, 14, 14], 
        [256, 1024, 1, 1], 
        [256], 
        [1, 256, 14, 14], 
        [256], 
        [256], 
        [256], 
        [256], 
        [256], 
        [256], 
        [256, 1, 1], 
        [1, 256, 14, 14], 
        [256], 
        [256], 
        [256], 
        [256], 
        [256], 
        [256, 1, 1], 
        [1, 256, 14, 14], 
        [1, 256, 14, 14], 
        [1, 256, 16, 16], 
        [256, 256, 3, 3], 
        [256], 
        [1, 256, 14, 14], 
        [256], 
        [256], 
        [256], 
        [256], 
        [256], 
        [256], 
        [256, 1, 1], 
        [1, 256, 14, 14], 
        [256], 
        [256], 
        [256], 
        [256], 
        [256], 
        [256, 1, 1], 
        [1, 256, 14, 14], 
        [1, 256, 14, 14], 
        [1024, 256, 1, 1], 
        [1024], 
        [1, 1024, 14, 14], 
        [1024], 
        [1024], 
        [1024], 
        [1024], 
        [1024], 
        [1024], 
        [1024, 1, 1], 
        [1, 1024, 14, 14], 
        [1024], 
        [1024], 
        [1024], 
        [1024], 
        [1024], 
        [1024, 1, 1], 
        [1, 1024, 14, 14], 
        [1, 1024, 14, 14], 
        [1, 1024, 14, 14], 
        [256, 1024, 1, 1], 
        [256], 
        [1, 256, 14, 14], 
        [256], 
        [256], 
        [256], 
        [256], 
        [256], 
        [256], 
        [256, 1, 1], 
        [1, 256, 14, 14], 
        [256], 
        [256], 
        [256], 
        [256], 
        [256], 
        [256, 1, 1], 
        [1, 256, 14, 14], 
        [1, 256, 14, 14], 
        [1, 256, 16, 16], 
        [256, 256, 3, 3], 
        [256], 
        [1, 256, 14, 14], 
        [256], 
        [256], 
        [256], 
        [256], 
        [256], 
        [256], 
        [256, 1, 1], 
        [1, 256, 14, 14], 
        [256], 
        [256], 
        [256], 
        [256], 
        [256], 
        [256, 1, 1], 
        [1, 256, 14, 14], 
        [1, 256, 14, 14], 
        [1024, 256, 1, 1], 
        [1024], 
        [1, 1024, 14, 14], 
        [1024], 
        [1024], 
        [1024], 
        [1024], 
        [1024], 
        [1024], 
        [1024, 1, 1], 
        [1, 1024, 14, 14], 
        [1024], 
        [1024], 
        [1024], 
        [1024], 
        [1024], 
        [1024, 1, 1], 
        [1, 1024, 14, 14], 
        [1, 1024, 14, 14], 
        [1, 1024, 14, 14], 
        [512, 1024, 1, 1], 
        [512], 
        [1, 512, 7, 7], 
        [512], 
        [512], 
        [512], 
        [512], 
        [512], 
        [512], 
        [512, 1, 1], 
        [1, 512, 7, 7], 
        [512], 
        [512], 
        [512], 
        [512], 
        [512], 
        [512, 1, 1], 
        [1, 512, 7, 7], 
        [1, 512, 7, 7], 
        [1, 512, 9, 9], 
        [512, 512, 3, 3], 
        [512], 
        [1, 512, 7, 7], 
        [512], 
        [512], 
        [512], 
        [512], 
        [512], 
        [512], 
        [512, 1, 1], 
        [1, 512, 7, 7], 
        [512], 
        [512], 
        [512], 
        [512], 
        [512], 
        [512, 1, 1], 
        [1, 512, 7, 7], 
        [1, 512, 7, 7], 
        [2048, 512, 1, 1], 
        [2048], 
        [1, 2048, 7, 7], 
        [2048], 
        [2048], 
        [2048], 
        [2048], 
        [2048], 
        [2048], 
        [2048, 1, 1], 
        [1, 2048, 7, 7], 
        [2048], 
        [2048], 
        [2048], 
        [2048], 
        [2048], 
        [2048, 1, 1], 
        [1, 2048, 7, 7], 
        [2048, 1024, 1, 1], 
        [2048], 
        [1, 2048, 7, 7], 
        [2048], 
        [2048], 
        [2048], 
        [2048], 
        [2048], 
        [2048], 
        [2048, 1, 1], 
        [1, 2048, 7, 7], 
        [2048], 
        [2048], 
        [2048], 
        [2048], 
        [2048], 
        [2048, 1, 1], 
        [1, 2048, 7, 7], 
        [1, 2048, 7, 7], 
        [1, 2048, 7, 7], 
        [512, 2048, 1, 1], 
        [512], 
        [1, 512, 7, 7], 
        [512], 
        [512], 
        [512], 
        [512], 
        [512], 
        [512], 
        [512, 1, 1], 
        [1, 512, 7, 7], 
        [512], 
        [512], 
        [512], 
        [512], 
        [512], 
        [512, 1, 1], 
        [1, 512, 7, 7], 
        [1, 512, 7, 7], 
        [1, 512, 9, 9], 
        [512, 512, 3, 3], 
        [512], 
        [1, 512, 7, 7], 
        [512], 
        [512], 
        [512], 
        [512], 
        [512], 
        [512], 
        [512, 1, 1], 
        [1, 512, 7, 7], 
        [512], 
        [512], 
        [512], 
        [512], 
        [512], 
        [512, 1, 1], 
        [1, 512, 7, 7], 
        [1, 512, 7, 7], 
        [2048, 512, 1, 1], 
        [2048], 
        [1, 2048, 7, 7], 
        [2048], 
        [2048], 
        [2048], 
        [2048], 
        [2048], 
        [2048], 
        [2048, 1, 1], 
        [1, 2048, 7, 7], 
        [2048], 
        [2048], 
        [2048], 
        [2048], 
        [2048], 
        [2048, 1, 1], 
        [1, 2048, 7, 7], 
        [1, 2048, 7, 7], 
        [1, 2048, 7, 7], 
        [512, 2048, 1, 1], 
        [512], 
        [1, 512, 7, 7], 
        [512], 
        [512], 
        [512], 
        [512], 
        [512], 
        [512], 
        [512, 1, 1], 
        [1, 512, 7, 7], 
        [512], 
        [512], 
        [512], 
        [512], 
        [512], 
        [512, 1, 1], 
        [1, 512, 7, 7], 
        [1, 512, 7, 7], 
        [1, 512, 9, 9], 
        [512, 512, 3, 3], 
        [512], 
        [1, 512, 7, 7], 
        [512], 
        [512], 
        [512], 
        [512], 
        [512], 
        [512], 
        [512, 1, 1], 
        [1, 512, 7, 7], 
        [512], 
        [512], 
        [512], 
        [512], 
        [512], 
        [512, 1, 1], 
        [1, 512, 7, 7], 
        [1, 512, 7, 7], 
        [2048, 512, 1, 1], 
        [2048], 
        [1, 2048, 7, 7], 
        [2048], 
        [2048], 
        [2048], 
        [2048], 
        [2048], 
        [2048], 
        [2048, 1, 1], 
        [1, 2048, 7, 7], 
        [2048], 
        [2048], 
        [2048], 
        [2048], 
        [2048], 
        [2048, 1, 1], 
        [1, 2048, 7, 7], 
        [1, 2048, 7, 7], 
        [1, 2048, 7, 7], 
        [1, 2048, 1, 1], 
        [1, 1, 1, 2048], 
        [1, 2048], 
        [1000, 2048], 
        [1000], 
        [1, 1000], 
        [1, 1000]]], 
    "storage_id": ["list_int", [
        -1, 
        0, 
        -1, 
        -1, 
        1, 
        -1, 
        2, 
        3, 
        2, 
        -1, 
        3, 
        2, 
        0, 
        -1, 
        2, 
        4, 
        -1, 
        2, 
        3, 
        1, 
        0, 
        1, 
        -1, 
        -1, 
        0, 
        -1, 
        4, 
        2, 
        3, 
        -1, 
        4, 
        2, 
        5, 
        -1, 
        3, 
        2, 
        -1, 
        3, 
        4, 
        0, 
        5, 
        0, 
        -1, 
        -1, 
        5, 
        -1, 
        2, 
        3, 
        4, 
        -1, 
        2, 
        3, 
        0, 
        -1, 
        4, 
        3, 
        -1, 
        4, 
        2, 
        5, 
        0, 
        -1, 
        -1, 
        5, 
        -1, 
        2, 
        4, 
        2, 
        -1, 
        4, 
        2, 
        0, 
        -1, 
        2, 
        3, 
        -1, 
        2, 
        4, 
        5, 
        -1, 
        -1, 
        0, 
        -1, 
        3, 
        2, 
        4, 
        -1, 
        3, 
        2, 
        1, 
        -1, 
        4, 
        2, 
        -1, 
        4, 
        3, 
        0, 
        1, 
        5, 
        -1, 
        -1, 
        0, 
        -1, 
        2, 
        4, 
        3, 
        -1, 
        2, 
        4, 
        1, 
        -1, 
        3, 
        4, 
        -1, 
        3, 
        2, 
        0, 
        1, 
        0, 
        -1, 
        -1, 
        1, 
        -1, 
        4, 
        3, 
        2, 
        -1, 
        4, 
        3, 
        0, 
        -1, 
        2, 
        3, 
        -1, 
        2, 
        4, 
        1, 
        0, 
        -1, 
        -1, 
        1, 
        -1, 
        3, 
        2, 
        4, 
        -1, 
        3, 
        2, 
        0, 
        -1, 
        4, 
        2, 
        -1, 
        4, 
        3, 
        1, 
        0, 
        5, 
        -1, 
        -1, 
        1, 
        -1, 
        2, 
        4, 
        3, 
        -1, 
        2, 
        4, 
        0, 
        -1, 
        3, 
        4, 
        -1, 
        3, 
        2, 
        1, 
        0, 
        1, 
        -1, 
        -1, 
        0, 
        -1, 
        4, 
        3, 
        2, 
        -1, 
        4, 
        3, 
        1, 
        -1, 
        2, 
        3, 
        -1, 
        2, 
        4, 
        0, 
        1, 
        -1, 
        -1, 
        0, 
        -1, 
        3, 
        2, 
        4, 
        -1, 
        3, 
        2, 
        1, 
        -1, 
        4, 
        2, 
        -1, 
        4, 
        3, 
        0, 
        1, 
        5, 
        -1, 
        -1, 
        0, 
        -1, 
        2, 
        4, 
        3, 
        -1, 
        2, 
        4, 
        1, 
        -1, 
        3, 
        4, 
        -1, 
        3, 
        2, 
        0, 
        1, 
        0, 
        -1, 
        -1, 
        1, 
        -1, 
        4, 
        3, 
        2, 
        -1, 
        4, 
        3, 
        0, 
        -1, 
        2, 
        3, 
        -1, 
        2, 
        4, 
        1, 
        0, 
        -1, 
        -1, 
        1, 
        -1, 
        4, 
        2, 
        4, 
        -1, 
        2, 
        4, 
        0, 
        -1, 
        4, 
        3, 
        -1, 
        4, 
        2, 
        1, 
        -1, 
        -1, 
        0, 
        -1, 
        3, 
        4, 
        2, 
        -1, 
        3, 
        4, 
        5, 
        -1, 
        2, 
        4, 
        -1, 
        2, 
        3, 
        0, 
        5, 
        1, 
        -1, 
        -1, 
        5, 
        -1, 
        4, 
        2, 
        3, 
        -1, 
        4, 
        2, 
        0, 
        -1, 
        3, 
        2, 
        -1, 
        3, 
        4, 
        5, 
        0, 
        5, 
        -1, 
        -1, 
        0, 
        -1, 
        2, 
        3, 
        4, 
        -1, 
        2, 
        3, 
        5, 
        -1, 
        4, 
        3, 
        -1, 
        4, 
        2, 
        0, 
        5, 
        -1, 
        -1, 
        0, 
        -1, 
        3, 
        4, 
        2, 
        -1, 
        3, 
        4, 
        5, 
        -1, 
        2, 
        4, 
        -1, 
        2, 
        3, 
        0, 
        5, 
        0, 
        -1, 
        -1, 
        5, 
        -1, 
        4, 
        2, 
        3, 
        -1, 
        4, 
        2, 
        1, 
        -1, 
        3, 
        2, 
        -1, 
        3, 
        4, 
        5, 
        1, 
        5, 
        -1, 
        -1, 
        1, 
        -1, 
        2, 
        3, 
        4, 
        -1, 
        2, 
        3, 
        5, 
        -1, 
        4, 
        3, 
        -1, 
        4, 
        2, 
        1, 
        5, 
        -1, 
        -1, 
        1, 
        -1, 
        3, 
        4, 
        2, 
        -1, 
        3, 
        4, 
        5, 
        -1, 
        2, 
        4, 
        -1, 
        2, 
        3, 
        1, 
        5, 
        1, 
        -1, 
        -1, 
        5, 
        -1, 
        4, 
        2, 
        3, 
        -1, 
        4, 
        2, 
        0, 
        -1, 
        3, 
        2, 
        -1, 
        3, 
        4, 
        5, 
        0, 
        5, 
        -1, 
        -1, 
        0, 
        -1, 
        2, 
        3, 
        4, 
        -1, 
        2, 
        3, 
        5, 
        -1, 
        4, 
        3, 
        -1, 
        4, 
        2, 
        0, 
        5, 
        -1, 
        -1, 
        0, 
        -1, 
        3, 
        4, 
        2, 
        -1, 
        3, 
        4, 
        5, 
        -1, 
        2, 
        4, 
        -1, 
        2, 
        3, 
        0, 
        5, 
        0, 
        -1, 
        -1, 
        5, 
        -1, 
        4, 
        2, 
        3, 
        -1, 
        4, 
        2, 
        1, 
        -1, 
        3, 
        2, 
        -1, 
        3, 
        4, 
        5, 
        1, 
        5, 
        -1, 
        -1, 
        1, 
        -1, 
        2, 
        3, 
        4, 
        -1, 
        2, 
        3, 
        5, 
        -1, 
        4, 
        3, 
        -1, 
        4, 
        2, 
        1, 
        5, 
        -1, 
        -1, 
        1, 
        -1, 
        2, 
        4, 
        2, 
        -1, 
        4, 
        2, 
        5, 
        -1, 
        2, 
        3, 
        -1, 
        2, 
        4, 
        1, 
        -1, 
        -1, 
        5, 
        -1, 
        3, 
        2, 
        4, 
        -1, 
        3, 
        2, 
        0, 
        -1, 
        4, 
        2, 
        -1, 
        4, 
        3, 
        5, 
        0, 
        5, 
        -1, 
        -1, 
        1, 
        -1, 
        2, 
        4, 
        3, 
        -1, 
        2, 
        4, 
        0, 
        -1, 
        3, 
        4, 
        -1, 
        3, 
        2, 
        1, 
        0, 
        1, 
        -1, 
        -1, 
        0, 
        -1, 
        4, 
        3, 
        2, 
        -1, 
        4, 
        3, 
        1, 
        -1, 
        2, 
        3, 
        -1, 
        2, 
        4, 
        0, 
        1, 
        -1, 
        -1, 
        0, 
        -1, 
        3, 
        2, 
        4, 
        -1, 
        3, 
        2, 
        1, 
        -1, 
        4, 
        2, 
        -1, 
        4, 
        3, 
        0, 
        1, 
        5, 
        -1, 
        -1, 
        0, 
        -1, 
        2, 
        4, 
        3, 
        -1, 
        2, 
        4, 
        1, 
        -1, 
        3, 
        4, 
        -1, 
        3, 
        2, 
        0, 
        1, 
        0, 
        -1, 
        -1, 
        1, 
        -1, 
        4, 
        3, 
        2, 
        -1, 
        4, 
        3, 
        0, 
        -1, 
        2, 
        3, 
        -1, 
        2, 
        4, 
        1, 
        0, 
        -1, 
        -1, 
        1, 
        -1, 
        3, 
        2, 
        4, 
        -1, 
        3, 
        2, 
        0, 
        -1, 
        4, 
        2, 
        -1, 
        4, 
        3, 
        1, 
        0, 
        5, 
        -1, 
        -1, 
        1, 
        -1, 
        2, 
        4, 
        3, 
        -1, 
        2, 
        4, 
        0, 
        -1, 
        3, 
        4, 
        -1, 
        3, 
        2, 
        1, 
        0, 
        1, 
        -1, 
        -1, 
        0, 
        -1, 
        4, 
        3, 
        2, 
        -1, 
        4, 
        3, 
        1, 
        -1, 
        2, 
        3, 
        -1, 
        2, 
        4, 
        0, 
        1, 
        -1, 
        -1, 
        0, 
        -1, 
        3, 
        2, 
        4, 
        -1, 
        3, 
        2, 
        1, 
        -1, 
        4, 
        2, 
        -1, 
        4, 
        3, 
        0, 
        1, 
        5, 
        -1, 
        -1, 
        0, 
        -1, 
        2, 
        4, 
        3, 
        -1, 
        2, 
        4, 
        1, 
        -1, 
        3, 
        4, 
        -1, 
        3, 
        2, 
        0, 
        1, 
        0, 
        -1, 
        -1, 
        1, 
        -1, 
        4, 
        3, 
        2, 
        -1, 
        4, 
        3, 
        0, 
        -1, 
        2, 
        3, 
        -1, 
        2, 
        4, 
        1, 
        0, 
        -1, 
        -1, 
        1, 
        -1, 
        3, 
        2, 
        4, 
        -1, 
        3, 
        2, 
        0, 
        -1, 
        4, 
        2, 
        -1, 
        4, 
        3, 
        1, 
        0, 
        5, 
        -1, 
        -1, 
        1, 
        -1, 
        2, 
        4, 
        3, 
        -1, 
        2, 
        4, 
        0, 
        -1, 
        3, 
        4, 
        -1, 
        3, 
        2, 
        1, 
        0, 
        1, 
        -1, 
        -1, 
        0, 
        -1, 
        4, 
        3, 
        2, 
        -1, 
        4, 
        3, 
        1, 
        -1, 
        2, 
        3, 
        -1, 
        2, 
        4, 
        0, 
        1, 
        -1, 
        -1, 
        0, 
        -1, 
        3, 
        2, 
        4, 
        -1, 
        3, 
        2, 
        1, 
        -1, 
        4, 
        2, 
        -1, 
        4, 
        3, 
        0, 
        1, 
        5, 
        -1, 
        -1, 
        6, 
        -1, 
        2, 
        4, 
        3, 
        -1, 
        2, 
        4, 
        7, 
        -1, 
        3, 
        4, 
        -1, 
        3, 
        2, 
        6, 
        7, 
        6, 
        -1, 
        -1, 
        7, 
        -1, 
        4, 
        3, 
        2, 
        -1, 
        4, 
        3, 
        6, 
        -1, 
        2, 
        3, 
        -1, 
        2, 
        4, 
        7, 
        6, 
        -1, 
        -1, 
        0, 
        -1, 
        7, 
        4, 
        7, 
        -1, 
        4, 
        7, 
        1, 
        -1, 
        7, 
        2, 
        -1, 
        4, 
        2, 
        0, 
        -1, 
        -1, 
        1, 
        -1, 
        4, 
        2, 
        4, 
        -1, 
        2, 
        4, 
        5, 
        -1, 
        4, 
        7, 
        -1, 
        4, 
        2, 
        1, 
        5, 
        0, 
        -1, 
        -1, 
        7, 
        -1, 
        3, 
        4, 
        3, 
        -1, 
        2, 
        3, 
        6, 
        -1, 
        3, 
        4, 
        -1, 
        3, 
        2, 
        7, 
        6, 
        7, 
        -1, 
        -1, 
        6, 
        -1, 
        3, 
        4, 
        3, 
        -1, 
        2, 
        3, 
        7, 
        -1, 
        3, 
        4, 
        -1, 
        3, 
        2, 
        6, 
        7, 
        -1, 
        -1, 
        5, 
        -1, 
        4, 
        2, 
        4, 
        -1, 
        2, 
        4, 
        1, 
        -1, 
        4, 
        3, 
        -1, 
        4, 
        2, 
        5, 
        1, 
        5, 
        -1, 
        -1, 
        6, 
        -1, 
        3, 
        4, 
        2, 
        -1, 
        3, 
        4, 
        7, 
        -1, 
        2, 
        4, 
        -1, 
        2, 
        3, 
        6, 
        7, 
        6, 
        -1, 
        -1, 
        7, 
        -1, 
        4, 
        2, 
        3, 
        -1, 
        4, 
        2, 
        6, 
        -1, 
        3, 
        2, 
        -1, 
        3, 
        4, 
        7, 
        6, 
        -1, 
        -1, 
        0, 
        -1, 
        2, 
        3, 
        4, 
        -1, 
        2, 
        3, 
        1, 
        -1, 
        4, 
        3, 
        -1, 
        4, 
        2, 
        0, 
        1, 
        5, 
        3, 
        4, 
        2, 
        -1, 
        -1, 
        3, 
        4]]
  }
}